checkpoint_critic.pth (torch_old, 89723 bytes, 9 tensors)

fcs1.weight f4 [128, 33]
-0.060805973 0.015160616 0.1585402 0.042787366 -0.14863087 0.10589819 0.15712255 0.06913137
-0.17523722 0.17993492 -0.010812679 -0.048069026 0.048355054 0.0101439115 -0.14709483 -0.09811998
0.18883608 0.40112284 -0.1705103 -0.04008904 0.028379017 0.077484794 -0.038523965 -0.035694223
-0.12658149 -0.13187897 -0.050838895 0.32575187 0.25072446 -0.032246154 -0.2112857 0.030339547
0.04013832 -0.11365094 -0.045372743 -0.012870835 -0.10266579 -0.13436356 -0.26525348 -0.08390228
-0.05806351 0.06077615 -0.032139007 -0.01774979 0.00870287 -0.050961014 0.23166868 0.09313295
0.10920648 0.48816234 0.06845257 0.29549643 -0.13545282 0.018598855 -0.017639386 0.01900703
0.010847245 0.03468509 -0.082436055 -0.12186693 -0.091371946 -0.10648737 -0.011298083 0.0382414
-0.00993944 -0.3403155 0.041458838 0.17027466 -0.060742825 0.11794866 -0.29932183 -0.1347503
0.121518195 -0.03340099 -0.011977093 0.019927822 -0.009911609 0.014579554 0.022463543 -0.094209
0.057681013 0.0701102 -0.11479153 -0.2725324 -0.07621062 -0.050885882 0.017022172 0.0050138235
0.0018693056 -0.0015377793 0.013058696 -0.0045136977 0.20716791 -0.08340288 -0.039523598 -0.03318392
0.12189115 0.08426701 -1.097713 -0.03226285 0.006780227 -0.07755785 0.021931946 -0.25511152
-0.19208366 -0.3266758 -0.013650465 0.011471643 0.07801516 0.0068208207 0.0031430302 -0.021113724
0.06579499 0.04695932 0.040174298 0.04841547 -0.2332965 0.21944298 0.25203505 -0.021001425
-0.006202371 -0.006726718 0.021759408 0.007954117 0.03169613 -0.09922344 0.032587584 0.076869756
0.06406779 -0.1691218 0.04519058 -1.0484633 -0.117224894 0.16086113 -0.011786304 0.34277958
-0.11822762 0.38742694 0.44631955 0.0018765243 -0.020920243 -0.066356346 -0.00862004 0.02526174
0.017739868 0.21559562 -0.08591011 0.09535156 0.1667983 0.06631547 -0.3465507 0.22808641
0.024567747 0.049138375 0.02655001 0.028165413 9.2413145e-05 -0.020228766 -0.21297339 0.07114416
-0.14016412 0.0028184652 -0.09305577 -0.08493044 0.28611952 0.047744934 0.13329369 -0.01257942
0.105438866 -0.36553904 0.34263518 0.4489753 0.003870544 -0.060551826 -0.048755944 -0.014505136
0.10197636 0.036726963 -0.20793891 0.05352671 0.024126457 -0.5440095 0.06255255 0.12326729
0.07163186 -0.00846597 0.01920269 -0.016855137 -0.025890382 0.06319602 0.025624497 0.12179968
-0.14326264 -0.026768923 0.08200831 0.25912255 -0.080153055 0.5297625 -0.1357364 -0.23965777
0.3284449 0.21629159 -0.32980862 0.4434093 0.08183644 0.091330804 -0.16641553 -0.051166676
-0.0066856598 -0.029366592 0.08331333 -0.03572745 0.1695383 -0.018876588 -0.11275249 0.40738702
0.30613503 0.084554724 -0.064207 0.04940278 -0.052560385 -0.04963993 0.028706972 -0.05000273
0.10798517 -0.036234997 -0.11838383 -0.05496695 0.08659606 -0.0067930073 -0.13110077 0.09213803
0.11178213 0.09544661 0.3977832 0.2253606 -0.6124716 0.42841992 -0.009753456 0.04999571
-0.045411553 0.045103442 -0.009988506 0.047386557 -0.08282186 -0.079274006 -0.06995388 -0.18009965
-0.7533587 -0.1937223 -0.30229163 -0.004932875 -0.006545002 -0.016439425 0.0021084177 0.009520167
00000000: af0f 79bd 3b64 783c 5d58 223e ce41 2f3d
00000010: b132 18be 26e1 d83d bce4 203e bf94 8d3d
00000020: 6371 33be dc40 383e aa27 31bc 07e4 44bd
00000030: f30f 463d a632 263c 07a0 16be 21f3 c8bd
00000040: 3f5e 413e f95f cd3e 419a 2ebe 6834 24bd
00000050: 1d7b e83c 59b0 9e3d 4ecb 1dbd 1b34 12bd
00000060: 949e 01be 480b 07be 723c 50bd f3c8 a63e
00000070: f55e 803e 8b14 04bd 475b 58be a48a f83c
00000080: 1468 243d d3c1 e8bd c5d8 39bd 32e0 52bc
00000090: 7142 d2bd 9a96 09be 4ecf 87be f5d4 abbd
000000a0: 01d4 6dbd 6af0 783d 31a4 03bd 0268 91bc
000000b0: 7c96 0e3c 7fbc 50bd 8e3a 6d3e 7dbc be3d
000000c0: a6a7 df3d 6af0 f93e dc30 8c3d 4f4b 973e
000000d0: 25b4 0abe a05c 983c 7980 90bc a2b4 9b3c
000000e0: a5b8 313c f411 0e3d 3cd4 a8bd 5e95 f9bd
000000f0: 3721 bbbd 0d16 dabd 981b 39bc 04a3 1c3d
00000100: 08d9 22bc d53d aebe bed0 293d 7b5c 2e3e
00000110: 78cd 78bd 118f f13d b640 99be fcfb 09be
00000120: 88de f83d 7acf 08bd 923b 44bc ac3f a33c
00000130: 4d64 22bc 15df 6e3c 7705 b83c a6f0 c0bd
00000140: ed42 6c3d f095 8f3d d217 ebbd 5e89 8bbe
00000150: 5014 9cbd b76d 50bd 1572 8b3c 004b a43b
00000160: 7d03 f53a 508f c9ba 24f4 553c a4e7 93bb
00000170: d323 543e 21cf aabd 7fe3 21bd ddeb 07bd
00000180: 11a2 f93d 2f94 ac3d dc81 8cbf 0d26 04bd
00000190: ab2c de3b a6d6 9ebd a0aa b33c fa9d 82be
000001a0: 94b1 44be 0d42 a7be 33a6 5fbc 8ff3 3b3c
000001b0: 6ac6 9f3d 3181 df3b 4cfb 4d3b b0f6 acbc
000001c0: 86bf 863d 6a58 403d ce8d 243d 4d4f 463d
000001d0: 47e5 6ebe a9b5 603e bd0a 813e 2e0b acbc
000001e0: 423d cbbb cd6b dcbb c940 b23c fc51 023c
000001f0: cdd3 013d a935 cbbd 8f7a 053d e46d 9d3d
00000200: f935 833d 442e 2dbe c219 393d 0c34 86bf
00000210: 9b13 f0bd c8b8 243e 581b 41bc ce80 af3e
00000220: 5321 f2bd d35c c63e ff83 e43e b5f5 f53a
00000230: ee60 abbc d6e5 87bd 113b 0dbc b5f1 ce3c
00000240: 3353 913c 19c5 5c3e a4f1 afbd ae47 c33d
00000250: 2ccd 2a3e 68d0 873d 186f b1be 7c8f 693e
00000260: 4d42 c93c 5245 493d 687f d93c 27bb e63c
00000270: eecd c138 ccb6 a5bc b215 5abe 08b4 913d
00000280: 2f87 0fbe 00b6 383b 0694 bebd 03f0 adbd
00000290: 427e 923e 3190 433d 247e 083e e919 4ebc
000002a0: 55f0 d73d ef27 bbbe e16d af3e 17e0 e53e
000002b0: f4a8 7d3b 3105 78bd 50b4 47bd f3a6 6dbc
000002c0: fbd8 d03d 036f 163d f0ed 54be d33e 5b3d
000002d0: d9a4 c53c 3544 0bbf 8d1b 803d 9073 fc3d
000002e0: bab3 923d dab4 0abc f64e 9d3c c913 8abc
000002f0: 1118 d4bc ea6c 813d 77ea d13c 1c72 f93d
00000300: 71b3 12be 804a dbbc f9f3 a73d b6ab 843e
00000310: 4927 a4bd 849e 073f 7cfe 0abe d968 75be
00000320: ee29 a83e 8b7b 5d3e addc a8be 8b06 e33e
00000330: dd99 a73d a50b bb3d d568 2abe 2694 51bd
00000340: 6113 dbbb 3592 f0bc 2ea0 aa3d f256 12bd
00000350: 739b 2d3e 13a3 9abc c7ea e6bd 0895 d03e
00000360: bbbd 9c3e 072b ad3d f67e 83bd 925a 4a3d
00000370: 8f49 57bd 3d53 4bbd e22a eb3c aacf 4cbd
00000380: 5427 dd3d 266b 14bd 3973 f2bd 0625 61bd
00000390: 4659 b13d e097 debb 483f 06be ddb2 bc3d
000003a0: 08ee e43d 8379 c33d 3daa cb3e eec4 663e
000003b0: f0ca 1cbf db59 db3e f6cc 1fbc 4dc8 4c3d
000003c0: 7701 3abd 63be 383d d5a6 23bc 6818 423d
000003d0: 829e a9bd 695a a2bd fb43 8fbd 0b6c 38be
000003e0: 1edc 40bf 235f 46be f8c5 9abe f4a3 a1bb
000003f0: 7577 d6bb f9ab 86bc 612d 0a3b 79fa 1b3c

fcs1.bias f4 [128]
-0.14844362 0.16391209 0.015936537 -0.11615229 -0.070879884 0.2468943 0.21991712 -0.2989706
-0.081317276 -0.05514265 -0.2234154 -0.039254446 0.07148494 -0.20791735 -0.17976135 -0.20177011
-0.19231622 0.012198934 -0.15001905 -0.11266231 -0.27439982 -0.40766555 -0.1712656 -0.35312596
-0.17430615 -0.036104437 -0.0112448735 -0.24686743 -0.3762162 -0.10589818 -0.13700448 -0.22309108
-0.050080802 -0.068140425 -0.12108356 -0.16772483 -0.30452198 -0.08953814 -0.029256059 -0.023653373
-0.09836557 0.010364775 -0.09268272 -0.14226352 -0.19321832 -0.08218583 -0.29955944 -0.13184698
-0.007016215 0.061426874 0.00013598142 0.036701437 -0.054338474 -0.25167474 0.015965415 -0.10891441
0.08659977 -0.11749409 -0.022349896 0.038068723 -0.13080612 0.3107607 -0.319232 -0.2626414
-0.35100988 -0.2908032 -0.08837897 0.07009465 -0.15335222 -0.0732499 -0.47092575 -0.14557539
-0.034836076 0.06850446 -0.059189186 0.2723709 -0.0064031263 -0.24145222 -0.093574 -0.23065674
-0.016855638 0.21064787 0.00036314956 0.13224094 -0.0059039793 -0.25640574 -0.06598434 -0.15335688
-0.08812683 -0.09816161 -0.38088676 0.23148042 -0.26702705 -0.043575127 -0.23223746 -0.20638262
0.038200434 -0.19542842 -0.023612315 -0.24264838 -0.1810933 -0.2475878 -0.08388399 -0.09464294
-0.065353476 -0.19362092 -0.09240146 -0.32038918 0.33225062 -0.18047778 -0.059934102 0.26812842
-0.0029342638 0.10792914 -0.09380391 -0.3084155 -0.0020191302 0.17757687 -0.1421834 -0.028481685
-0.3243586 0.23904845 -0.054595474 -0.07913767 0.023138132 -0.044902064 0.06441365 -0.21713074
00000000: 9b01 18be 92d8 273e 578d 823c 40e1 edbd
00000010: 7929 91bd dcd1 7c3e f431 613e ad12 99be
00000020: ac89 a6bd 42dd 61bd 02c7 64be 45c9 20bd
00000030: b266 923d 49e8 54be 5c13 38be d39c 4ebe
00000040: 8bee 44be 0ade 473c 989e 19be 7fbb e6bd
00000050: 227e 8cbe 8ab9 d0be 4060 2fbe edcc b4be
00000060: 507d 32be 3fe2 13bd 6b3c 38bc d1ca 7cbe
00000070: 699f c0be 25e1 d8bd e74a 0cbe fd71 64be
00000080: 8721 4dbd 358d 8bbd a8fa f7bd 0fc0 2bbe
00000090: 4eea 9bbe c65f b7bd 67aa efbc b8c4 c1bc
000000a0: e373 c9bd 04d1 293c 70d0 bdbd 87ad 11be
000000b0: 06db 45be 0b51 a8bd db5f 99be e502 07be
000000c0: 47e8 e5bb bf9a 7b3d 3c96 0e39 3f54 163d
000000d0: 0592 5ebd 83db 80be e7c9 823c 850e dfbd
000000e0: 385b b13d bea0 f0bd 2117 b7bc f3ed 1b3d
000000f0: 0af2 05be 071c 9f3e 6072 a3be ef78 86be
00000100: 91b7 b3be 28e4 94be 0900 b5bd c98d 8f3d
00000110: 5d08 1dbe 0b04 96bd 2e1d f1be b711 15be
00000120: 46b0 0ebd 114c 8c3d 5c70 72bd 3374 8b3e
00000130: 51d1 d1bb 403f 77be baa3 bfbd 4831 6cbe
00000140: d614 8abc 13b4 573e 1c65 be39 2b6a 073e
00000150: 2b76 c1bb 9d47 83be cc22 87bd 9609 1dbe
00000160: d77b b4bd f408 c9bd 9703 c3be 3409 6d3e
00000170: c5b7 88be d57b 32bd a8cf 6dbe f755 53be
00000180: 0f78 1c3d 631e 48be 9d6e c1bc d178 78be
00000190: 8670 39be a887 7dbe 5fcb abbd 28d4 c1bd
000001a0: 0bd8 85bd 9044 46be fa3c bdbd 0d0a a4be
000001b0: c11c aa3e 2bcf 38be 767d 75bd 2148 893e
000001c0: c74c 40bb f409 dd3d 441c c0bd a3e8 9dbe
000001d0: 6253 04bb b6d6 353e 8698 11be 6c52 e9bc
000001e0: 5512 a6be 1ec9 743e 819f 5fbd ee12 a2bd
000001f0: 2e8c bd3c 3aeb 37bd 4eeb 833d 8557 5ebe

bn1.weight f4 [128]
0.4023927 0.58636 0.81912756 0.7560071 0.838685 0.556106 0.42879948 0.42200074
-0.21354885 0.20284908 0.2783609 0.4337175 0.3619371 0.22456951 0.5289864 0.6201
0.81078726 0.63719803 0.29717088 0.82656467 0.6564749 0.55068636 0.4578137 0.583748
0.7783586 0.29056624 0.59686595 0.721107 0.79500115 0.38711622 0.50375 0.77599806
0.70688283 0.5893954 0.7295552 0.6222621 0.7555814 0.7200558 0.6705129 0.70290965
0.72840995 0.57658285 0.5414098 0.503343 0.7412387 0.34648985 0.5408732 0.3819374
0.382956 0.686973 0.5442059 0.37597856 0.4258012 0.41718382 0.4442598 0.46368715
0.7450339 0.5959114 0.4655249 0.62741506 1.0261956 0.7094122 0.38229582 0.81215984
0.23877059 0.4661404 0.8683316 0.38145414 0.46108255 0.2569377 0.520731 0.6841164
0.6369746 0.58549124 0.59432864 0.46051255 0.46436447 0.75805867 0.5456469 0.52803594
0.65213454 0.37802115 0.67826223 0.58598584 0.61704385 0.36390162 0.5355395 0.6990967
0.34773436 0.6399273 -0.34665543 0.511703 0.8858806 0.7010799 0.17549151 0.5357254
0.53733796 0.5622275 0.3044936 0.29359245 0.52929294 0.44211966 0.5955958 0.45588088
0.4792767 0.41652486 0.6390227 0.8096711 0.550914 0.5463226 0.7482459 0.5908847
0.51811075 0.5078258 0.37824416 0.4774176 0.68685454 0.44737205 0.8855662 0.5121805
0.3525293 0.4456984 0.31882352 0.50439405 0.40641287 0.3695092 0.48237938 0.58955467
00000000: 6a06 ce3e b01b 163f 58b2 513f ae89 413f
00000010: 0fb4 563f f65c 0e3f 9b8b db3e 7b10 d83e
00000020: 8dac 5abe abb7 4f3e 5285 8e3e 3810 de3e
00000030: d24f b93e 8df5 653e a76b 073f e0be 1e3f
00000040: c18f 4f3f 691f 233f c826 983e be99 533f
00000050: bd0e 283f c8f9 0c3f 8f66 ea3e 8270 153f
00000060: 8242 473f 19c5 943e 35cc 183f 789a 383f
00000070: 3285 4b3f 1934 c63e c3f5 003f cfa7 463f
00000080: 46f6 343f 9ee2 163f 21c4 3a3f 924c 1f3f
00000090: c86d 413f 9455 383f bca6 2b3f e3f1 333f
000000a0: 1379 3a3f ef9a 133f d599 0a3f 16db 003f
000000b0: d2c1 3d3f 1e67 b13e ab76 0a3f 4d8d c33e
000000c0: cf12 c43e 76dd 2f3f 1451 0b3f 4380 c03e
000000d0: 9d02 da3e 1e99 d53e 0576 e33e 6768 ed3e
000000e0: 8bba 3e3f a68d 183f 4859 ee3e 469e 203f
000000f0: 615a 833f 0a9c 353f 47bc c33e b5e9 4f3f
00000100: 4780 743e f4a9 ee3e fb4a 5e3f f54d c33e
00000110: 0313 ec3e 578d 833e a04e 053f 4122 2f3f
00000120: c410 233f c1e2 153f ec25 183f 4dc8 eb3e
00000130: 2ec1 ed3e 2210 423f 84af 0b3f 5d2d 073f
00000140: 4af2 263f fd8b c13e 98a2 2d3f 2b03 163f
00000150: 96f6 1d3f 5051 ba3e 1e19 093f 00f8 323f
00000160: 3d0a b23e 47d2 233f d27c b1be f8fe 023f
00000170: 12c9 623f f979 333f 0cb4 333e 4d25 093f
00000180: fb8e 093f 24ee 0f3f 96e6 9b3e c051 963e
00000190: be7f 073f 825d e23e f778 183f 3869 e93e
000001a0: c163 f53e bf42 d53e fe96 233f 9b46 4f3f
000001b0: b308 0d3f ccdb 0b3f 0b8d 3f3f 3844 173f
000001c0: e8a2 043f df00 023f 38a9 c13e 1470 f43e
000001d0: b3d5 2f3f f30d e53e 77b4 623f 431e 033f
000001e0: b87e b43e 9532 e43e d63c a33e f81f 013f
000001f0: 5915 d03e 4f30 bd3e 6efa f63e 0eed 163f

bn1.bias f4 [128]
0.10333506 -0.22050898 0.18633005 0.11614988 0.018212184 0.024947666 0.0029157724 0.07459199
0.4300004 -0.18374063 -0.09556022 -0.08224991 0.022163091 -0.06695632 0.16179976 0.17500566
0.17985155 0.07639998 -0.28011504 0.09669087 -0.043063022 0.18546526 0.04930342 -0.15421487
0.15509896 -0.19352429 0.2048916 -0.06921917 -0.0027520254 0.055177134 0.1613433 -0.18061158
0.20946674 0.11678303 0.14685975 0.058089938 0.24085122 0.08897004 -0.051444158 0.25877687
0.1856114 -0.015925359 0.05531099 0.17781201 0.047652397 -0.021897199 0.13970728 0.15616198
0.10659815 0.090733536 0.23497868 -0.023422606 0.1209455 -0.10482623 0.20788193 0.0064234054
0.28766552 0.27134538 0.05877 0.1688683 0.12677492 0.019161655 -0.19407097 0.23241872
0.23775372 0.13371277 -0.06484397 -0.14103067 0.016101612 0.05287944 0.06734019 0.27005687
-0.16325694 0.019850861 0.2182575 0.1271896 -0.3192873 0.17226249 -0.04476207 -0.18686415
-0.1788018 -0.04924723 0.15279625 0.29433256 -0.14123121 0.39013273 0.21120603 0.105030805
0.04798093 -0.13295569 -0.18554847 -0.037650477 0.11724674 -0.17323413 -0.21655697 -0.0025794946
0.23137656 -0.010348508 -0.08415553 0.19911948 0.072164275 0.06636219 0.13935761 -0.15661196
0.04311791 -0.17501445 0.25374636 0.22566682 0.01848715 -0.16510762 0.24437413 0.1126354
-0.16220596 0.29257753 0.1498995 0.1726872 0.18631095 -0.09857556 0.1815594 -0.0745711
0.22422849 0.13623737 -0.46843195 -0.10693903 0.011579622 0.21861787 -0.018439287 0.008731011
00000000: 55a1 d33d 1bcd 61be 4ecd 3e3e fddf ed3d
00000010: b831 953c 0c5f cc3c 8b16 3f3b afc3 983d
00000020: 0329 dc3e 8126 3cbe 14b5 c3bd a472 a8bd
00000030: 5f8f b53c 6520 89bd d6ae 253e af34 333e
00000040: 012b 383e 9877 9c3d 3d6b 8fbe dd05 c63d
00000050: da62 30bd 9bea 3d3e 62f2 493d 81ea 1dbe
00000060: 43d2 1e3e 3b2b 46be 1bcf 513e c8c2 8dbd
00000070: 535b 34bb 6b01 623d 2e37 253e 3ef2 38be
00000080: 737e 563e f12b ef3d 6762 163e b7ef 6d3d
00000090: b4a1 763e ed35 b63d 1cb7 52bd 677e 843e
000000a0: ea10 3e3e e675 82bc c78d 623d 5a14 363e
000000b0: 292f 433d c161 b3bc 6d0f 0f3e ede8 1f3e
000000c0: 2250 da3d 81d2 b93d 409e 703e c4e0 bfbc
000000d0: 46b2 f73d 22af d6bd 00df 543e 6e7b d23b
000000e0: e548 933e c8ed 8a3e d0b8 703d d0eb 2c3e
000000f0: 49d1 013e e7f8 9c3c 8aba 46be 2cff 6d3e
00000100: b675 733e 00ec 083e eacc 84bd 586a 10be
00000110: 87e7 833c 1d98 583d a7e9 893d e544 8a3e
00000120: d42c 27be 469e a23c e57e 5f3e fe3d 023e
00000130: a079 a3be 9465 303e 6f58 37bd 5159 3fbe
00000140: d217 37be 77b7 49bd 9f76 1c3e c2b2 963e
00000150: ea9e 10be 7abf c73e 6546 583e 641a d73d
00000160: a787 443d 8925 08be 6b00 3ebe 6337 1abd
00000170: 0f1f f03d 4a64 31be 1cc1 5dbe bd0c 29bb
00000180: faed 6c3e ca8c 29bc bc59 acbd fae5 4b3e
00000190: ddca 933d e6e8 873d c3b3 0e3e e35e 20be
000001a0: 689c 303d fd36 33be 0beb 813e 3415 673e
000001b0: 5d72 973c f911 29be 363d 7a3e 63ad e63d
000001c0: 5219 26be b9cc 953e 417f 193e ead4 303e
000001d0: 4cc8 3e3e fce1 c9bd b5ea 393e bcb8 98bd
000001e0: 279c 653e cf81 0b3e 50d6 efbe da02 dbbd
000001f0: 74b8 3d3c 5ddd 5f3e fd0d 97bc 840c 0f3c

bn1.running_mean f4 [128]
0.514608 0.22550653 0.3253165 0.24904369 0.29724893 0.27169564 0.6547533 0.054471754
0.3823706 0.04753051 0.15985343 0.18876517 0.28142026 0.029670442 0.045770105 0.21844165
0.07862248 0.7346894 0.047707453 0.19063154 0.27248025 0.2888267 0.09947278 0.069077514
0.09372232 0.24816144 0.031793192 0.18397203 0.43804458 0.033154264 0.07130287 0.12385293
0.2763885 0.15850252 0.16665582 0.32344535 0.1610052 0.22010756 0.23076855 0.08290314
0.19202198 0.028598052 0.12640974 0.08340107 0.18051733 0.042032335 0.029113403 0.27382797
0.31207788 0.14881031 0.084376775 0.11072287 0.5614588 0.15250887 0.60108954 0.24481635
0.5956377 0.122135185 0.36762342 0.4905948 0.27203336 0.7129591 0.08193249 0.1469403
0.08291897 0.15021427 0.079564214 0.16294011 0.17649156 0.13237862 0.14894593 0.6930059
0.17319916 0.43939075 0.107834615 1.1963447 0.19703838 0.20852749 0.09584257 0.12398144
0.40052766 0.0725239 0.22059932 0.69265735 0.12920198 0.42836595 0.11732769 0.10174285
0.34993938 0.09907246 0.38371193 0.71623266 0.06254233 0.17740077 0.015649503 0.19621432
0.3857454 0.3218689 0.19470437 0.1635102 0.07440716 0.18827674 0.56268626 0.40725714
0.29982167 0.081236795 0.27976954 0.13063318 0.5372314 0.30978447 0.8468368 0.4787928
0.08845805 0.38326082 0.7390464 0.093704656 0.33613148 0.17281935 0.18522473 0.11721068
0.073419325 0.17894807 0.17582737 0.077270165 0.16820222 0.42640725 0.12052194 0.06717401
00000000: 5abd 033f 2feb 663e e28f a63e 4f05 7f3e
00000010: 0331 983e b11b 8b3e ea9d 273f c61d 5f3d
00000020: 14c6 c33e 5aaf 423d 9eb0 233e a84b 413e
00000030: 5116 903e 6d0f f33c 6f79 3b3d 2baf 5f3e
00000040: d304 a13d 9b14 3c3f e468 433d ea34 433e
00000050: 8882 8b3e 18e1 933e 63b8 cb3d 8378 8d3d
00000060: 7df1 bf3d 081e 7e3e 9439 023d 2a63 3c3e
00000070: 6147 e03e c4cc 073d 3d07 923d 9ba6 fd3d
00000080: cb82 8d3e 7c4e 223e d3a7 2a3e a19a a53e
00000090: 8cde 243e e063 613e 974e 6c3e 1fc9 a93d
000000a0: 69a1 443e 7646 ea3c 8e71 013e 2ece aa3d
000000b0: 89d9 383e 192a 2c3d 3b7f ee3c 2e33 8c3e
000000c0: acc8 9f3e bb61 183e bbcd ac3d acc2 e23d
000000d0: c4bb 0f3f 492b 1c3e 01e1 193f 23b1 7a3e
000000e0: b67b 183f 0322 fa3d 2339 bc3e 3e2f fb3e
000000f0: f547 8b3e 7d84 363f 39cc a73d 8577 163e
00000100: 6cd1 a93d c5d1 193e 90f2 a23d c6d9 263e
00000110: 34ba 343e 438e 073e 4885 183e d668 313f
00000120: 1f5b 313e d3f7 e03e 65d8 dc3d d321 993f
00000130: 6ec4 493e 3b88 553e 1c49 c43d fbe9 fd3d
00000140: f611 cd3e 6987 943d cae4 613e fe51 313f
00000150: 864d 043e c852 db3e 8049 f03d 8e5e d03d
00000160: 412b b33e 80e6 ca3d e475 c43e 065b 373f
00000170: 3116 803d 8ca8 353e 6333 803c 68ec 483e
00000180: 6c80 c53e 00cc a43e 9560 473e 386f 273e
00000190: c862 983d 9ecb 403e 350c 103f 0284 d03e
000001a0: 3a82 993e 7a5f a63d f43d 8f3e b4c4 053e
000001b0: ff87 093f 129c 9e3e 4cca 583f 5424 f53e
000001c0: 7e29 b53d c33a c43e 2532 3d3f 3ae8 bf3d
000001d0: 6d19 ac3e 8ef7 303e 8dab 3d3e 270c f03d
000001e0: df5c 963d 2a3e 373e 170c 343e d23f 9e3d
000001f0: 343d 2c3e 0d52 da3e 35d4 f63d 8792 893d

bn1.running_var f4 [128]
0.503127 0.09759662 0.25622308 0.1491446 0.15387046 0.14902948 0.22106175 0.02125829
0.440277 0.032931212 0.10395878 0.1104231 0.16066839 0.018934874 0.025398476 0.15746768
0.047246266 0.21152562 0.028491177 0.17892356 0.22497685 0.33620113 0.06709739 0.058642615
0.046881136 0.17505035 0.01779314 0.13787745 0.2716348 0.015202177 0.032529924 0.10301135
0.12047233 0.12916914 0.08806333 0.1496549 0.12716809 0.17274646 0.11186741 0.047572922
0.18024798 0.022116572 0.058153953 0.036005676 0.11452396 0.024902683 0.018913344 0.14056206
0.21552676 0.07399546 0.04632854 0.0697883 0.23613274 0.10169618 0.2504959 0.20511585
0.17837146 0.07021104 0.24759912 0.4425084 0.1643981 0.2518856 0.058870967 0.13071221
0.05432421 0.10732262 0.033918314 0.11209811 0.099650584 0.08874985 0.11130388 0.5877247
0.122574605 0.14543314 0.060059585 0.17763224 0.17018798 0.16167738 0.045101635 0.07424553
0.29072455 0.047318213 0.13423602 0.3605257 0.076252334 0.27976412 0.06578727 0.07829061
0.16077009 0.057032432 0.40446058 0.261676 0.03823326 0.118443705 0.010262241 0.10935381
0.2099243 0.13684633 0.16908544 0.21622567 0.042886797 0.11594069 0.51403815 0.3526238
0.16023788 0.037628915 0.18047483 0.09076313 0.276966 0.24588579 0.2672809 0.21999902
0.038180172 0.29356384 0.42953146 0.07595158 0.30459452 0.099758424 0.10825836 0.06056696
0.047710255 0.09484419 0.1230214 0.060655687 0.08495059 0.2547828 0.09128188 0.038797613
00000000: eecc 003f bde0 c73d ac2f 833e 5db9 183e
00000010: 3890 1d3e 2f9b 183e 035e 623e de25 ae3c
00000020: fd6b e13e e1e2 063d 57e8 d43d 8225 e23d
00000030: 4186 243e 4f1d 9b3c 7710 d03c 353f 213e
00000040: 4d85 413d 2c9a 583e 5466 e93c bd37 373e
00000050: 5560 663e 8e22 ac3e 5b6a 893d 3d33 703d
00000060: 6f06 403d 6640 333e ebc2 913c bf2f 0d3e
00000070: b713 8b3e 8d12 793c 193e 053d 9df7 d23d
00000080: 32ba f63d ea44 043e 8c5a b43d 223f 193e
00000090: 5a38 023e 73e4 303e be1a e53d d3db 423d
000000a0: ed92 383e d02d b53c d732 6e3d b07a 133d
000000b0: 8a8b ea3d b600 cc3c 28f0 9a3c 80ef 0f3e
000000c0: 0cb3 5c3e ef8a 973d ffc2 3d3d 2bed 8e3d
000000d0: c8cc 713e 1646 d03d 0041 803e e409 523e
000000e0: 02a7 363e ceca 8f3d a08a 7d3e 7690 e23e
000000f0: fa57 283e 26f7 803e af22 713d 6cd9 053e
00000100: 1083 5e3d f6cb db3d eeed 0a3d b293 e53d
00000110: 9b15 cc3d 7bc2 b53d 4af3 e33d 2075 163f
00000120: 6508 fb3d 6dec 143e 0a01 763d 3ae5 353e
00000130: c245 2e3e c18e 253e 7ebc 383d 0a0e 983d
00000140: d9d9 943e bed0 413d 2b75 093e d396 b83e
00000150: 2f2a 9c3d 3e3d 8f3e 7abb 863d d456 a03d
00000160: eaa0 243e d79a 693d 7515 cf3e 66fa 853e
00000170: 7b9a 1c3d 9d92 f23d f522 283c e4f4 df3d
00000180: 65f6 563e 7221 0c3e bc24 2d3e 436a 5d3e
00000190: 11aa 2f3d 5072 ed3d 0198 033f 1b8b b43e
000001a0: 6615 243e c720 1a3d 65ce 383e 05e2 b93d
000001b0: 7dce 8d3e 7cc9 7b3e 0bd9 883e 6c47 613e
000001c0: d062 1c3d 004e 963e 8ceb db3e 818c 9b3d
000001d0: d0f3 9b3e 254e cc3d 8fb6 dd3d 1015 783d
000001e0: d46b 433d ac3d c23d a5f2 fb3d 1972 783d
000001f0: 93fa ad3d e472 823e fff1 ba3d 3fea 1e3d

fc2.weight f4 [128, 132]
-0.05338075 -0.0081851445 0.038396012 -0.098326996 0.053842627 0.041619267 -0.14233007 -0.022900261
0.07728355 0.098805465 -0.13970947 -0.067744054 -0.025703928 -0.029148685 0.14288658 0.10798626
-0.21666998 0.05945276 0.072099715 0.02691022 -0.12028843 0.11066137 0.038361896 0.24808404
-0.07137043 0.030133914 -0.1879607 -0.13220255 0.07365157 -0.094610006 -0.023073575 0.09814679
0.15206018 0.16716641 -0.14452922 0.052530333 0.01053476 -0.034219347 -0.056292947 -0.1513581
-0.04052989 0.18209626 0.09844842 -0.09830186 0.11880288 -0.08015943 -0.20749812 0.09501886
0.030483449 0.0041706064 0.13773362 -0.3120208 -0.03975582 -0.16276036 0.0017938047 0.0009573446
-0.023101456 -0.09773665 -0.018199226 -0.062499005 -0.60716087 0.09098245 -0.21911319 -0.0911644
-0.14275837 -0.03255481 0.07701989 -0.14385389 0.028761303 0.22002599 -0.08842547 -0.0095157875
-0.08314919 0.16209069 -0.0058037937 -0.1299955 -0.053091563 0.117148936 -0.007508051 0.01419394
-0.24393512 0.07145912 0.010025608 0.08985793 0.123172425 -0.11641844 0.03422886 -0.24673797
-0.13006814 0.1796658 0.121362075 0.00264642 0.011052469 0.21510425 0.0879493 0.25450715
-0.16493765 0.12720902 -0.10961232 0.094335355 0.04560176 0.102550544 0.1043906 -0.0076551326
-0.0118754245 -0.23204222 0.18363014 -0.118353024 0.004696794 0.19516578 0.10928505 -0.050409373
0.027856909 -0.2540838 0.033693854 0.032456793 0.078943685 0.12111286 -0.12963027 0.066740125
0.12119493 0.052207865 0.09945953 -0.16617003 -0.16801536 0.11247874 -0.05726973 0.09802204
-0.030867497 0.028021857 -0.0045516687 0.019786267 -0.032955475 -0.1511176 0.12969773 0.06082641
-0.00459273 -0.055816747 -0.11799172 -0.06462159 -0.1836991 0.1024242 -0.027006123 -0.10850561
-0.054964714 -0.025827058 -0.07996114 -0.17585436 0.010495475 0.065356225 0.123953566 -0.29529706
0.017823502 -0.039583746 0.008630547 0.067031585 -0.14359622 0.014535908 -0.5225832 -0.1377085
-0.06798938 -0.10233383 0.03213778 0.06557308 -0.13733357 -0.075080484 -0.043796334 0.036486574
-0.027874082 0.09591487 -0.23205635 -0.09205183 -0.35283569 -0.059262242 -0.11486678 -0.06909084
-0.022478286 0.17845562 0.135638 -0.39400008 -0.2407713 -0.12360686 0.006674587 0.081364594
0.0019774903 -0.004407751 -0.050718676 -0.08410708 0.04104794 -0.07583069 0.020236306 0.12800723
0.09851993 -0.06730338 -0.1519126 -0.17899285 -0.30362368 -0.12902528 -0.1957919 0.106551215
0.12136853 -0.13443896 -0.12319915 -0.075987205 -0.22503507 -0.028290324 0.026176732 -0.1332549
-0.04387487 -0.1491418 -0.1103084 -0.24986306 -0.09876395 -0.08195277 -0.21391812 -0.028968785
0.025052523 0.07964153 0.031669986 -0.08583275 -0.008052182 -0.2078565 -0.01648878 0.006536899
0.053440813 -0.12731484 0.04257796 0.104557715 0.1651084 -0.031927463 -0.37946993 0.23474146
0.25698116 -0.085427254 0.0146240825 0.1455332 -0.03845765 -0.015950192 -0.25736797 -0.020526368
0.022808073 -0.11754601 0.003779589 0.10508375 0.13649476 0.016430862 0.21088149 -0.32397008
-0.14152867 -0.117552444 -0.08575071 -0.027565992 0.019004924 0.08759562 0.11906032 -0.12557381
00000000: c6a5 5abd fc1a 06bc 2345 1d3d aa5f c9bd
00000010: 168a 5c3d f778 2a3d f9be 11be 5499 bbbc
00000020: d646 9e3d 855a ca3d 0010 0fbe 65bd 8abd
00000030: 0b91 d2bc 39c9 eebc dc50 123e e627 dd3d
00000040: bcde 5dbe bd84 733d 04a9 933d d272 dc3c
00000050: c859 f6bd 6ea2 e23d 5d21 1d3d be09 7e3e
00000060: a92a 92bd 66db f63c c578 40be 1b60 07be
00000070: a2d6 963d e4c2 c1bd cb04 bdbc 2f01 c93d
00000080: aab5 1b3e ac2d 2b3e 78ff 13be 0c2a 573d
00000090: fc99 2c3c 9629 0cbd 6f93 66bd 9efd 1abe
000000a0: ac02 26bd 7177 3a3e 539f c93d 7c52 c9bd
000000b0: ed4e f33d a12a a4bd 637a 54be 4099 c23d
000000c0: 6db8 f93c 95a9 883b 0b0a 0d3e 31c1 9fbe
000000d0: 00d7 22bd a7aa 26be 191e eb3a 4ff6 7a3a
000000e0: 443f bdbc 272a c8bd 8b16 95bc f5fe 7fbd
000000f0: e56e 1bbf 0255 ba3d 355f 60be 67b4 babd
00000100: 402f 12be 3158 05bd 9bbc 9d3d 6f4e 13be
00000110: d39c eb3c 7e4e 613e 6a18 b5bd 1be8 1bbc
00000120: 1f4a aabd 1afb 253e c02d bebb 8a1d 05be
00000130: 8a76 59bd c8eb ef3d 1906 f6bb b38d 683c
00000140: 21ca 79be 2959 923d 7342 243c 6f07 b83d
00000150: d341 fc3d cb6c eebd 9033 0c3d e1a8 7cbe
00000160: 9530 05be 50fa 373e ae8c f83d 8f6f 2d3b
00000170: 6a15 353c 4a44 5c3e c31e b43d c34e 823e
00000180: 6ae5 28be 1543 023e 6d7c e0bd e532 c13d
00000190: e9c8 3a3d 0506 d23d bdca d53d e8d7 fabb
000001a0: 2491 42bc 7a9c 6dbe 8a09 3c3e 1263 f2bd
000001b0: 90e7 993b 8ad9 473e d7d0 df3d 0f7a 4ebd
000001c0: 2c34 e43c 4617 82be 9102 0a3d 6af1 043d
000001d0: 3aad a13d 050a f83d ccbd 04be 0caf 883d
000001e0: 0c35 f83d ead7 553d 70b1 cb3d 7a28 2abe
000001f0: 380c 2cbe 415b e63d aa93 6abd c8bf c83d
00000200: d5dd fcbc 188e e53c 2a26 95bb cf16 a23c
00000210: 52fc 06bd 92be 1abe 7bcf 043e 1d25 793d
00000220: 9d7e 96bb 1aa0 64bd a5a5 f1bd 5358 84bd
00000230: 9e1b 3cbe c7c3 d13d f23b ddbc 3038 debd
00000240: ae22 61bd 4493 d3bc abc2 a3bd 2a13 34be
00000250: 36f5 2b3c 7cd9 853d 5edb fd3d 2d31 97be
00000260: 9802 923c 9122 22bd 2367 0d3c db47 893d
00000270: e30a 13be 0428 6e3c 03c8 05bf 7503 0dbe
00000280: 043e 8bbd 6694 d1bd e8a2 033d 2e4b 863d
00000290: 2ca1 0cbe ccc3 99bd c963 33bd f272 153d
000002a0: 3058 e4bc 046f c43d 2ea0 6dbe ab85 bcbd
000002b0: e1a6 b4be f7bc 72bd 463f ebbd 807f 8dbd
000002c0: 6224 b8bc 12bd 363e b0e4 0a3e 61ba c9be
000002d0: c08c 76be 9825 fdbd 7eb6 da3b 7ba2 a63d
000002e0: c898 013b e56e 90bb 63be 4fbd 5540 acbd
000002f0: e221 283d 1f4d 9bbd 9cc6 a53c 5414 033e
00000300: d1c4 c93d 5bd6 89bd fa8e 1bbe e749 37be
00000310: 9074 9bbe 341f 04be ac7d 48be 8637 da3d
00000320: 1090 f83d 5eaa 09be d64f fcbd 2e9f 9bbd
00000330: 986f 66be 1cc1 e7bc 9670 d63c f973 08be
00000340: 23b6 33bd a1b8 18be 5fe9 e1bd 1adc 7fbe
00000350: c144 cabd dbd6 a7bd 5a0d 5bbe f24f edbc
00000360: f33a cd3c 191b a33d 63b8 013d 15c9 afbd
00000370: 4ded 03bc 56d8 54be 7a13 87bc 7c33 d63b
00000380: c1e4 5a3d d25e 02be 3a66 2e3d 5b22 d63d
00000390: 2d12 293e 5fc6 02bd e249 c2be 1160 703e
000003a0: 0993 833e 7cf4 aebd d999 6f3c a806 153e
000003b0: c585 1dbd faa9 82bc bcc5 83be ea26 a8bc
000003c0: ffd7 ba3c f6bb f0bd fbb2 773b 2636 d73d
000003d0: 48c5 0b3e 049a 863c 51f1 573e 68df a5be
000003e0: e4ec 10be 56bf f0bd 119e afbd 13d2 e1bc
000003f0: 37b0 9b3c 5565 b33d e6d5 f33d 6c96 00be

fc2.bias f4 [128]
0.20474263 -0.16274868 0.10440113 -0.03144378 0.16638853 -0.26537287 0.020500144 -0.22567128
-0.2729217 -0.19142509 -0.2611875 -0.25188676 0.05233208 -0.18683477 -0.22586076 -0.012432893
0.44379354 0.15511148 -0.32413465 0.089784116 0.19961143 0.1432961 0.24417983 -0.19049281
-0.37145865 -0.21636552 -0.286612 -0.2916969 0.22247471 -0.21780808 0.13674553 0.038661208
-0.20432676 -0.19410902 0.49371302 -0.09828809 -0.24262291 0.28416708 -0.32125258 0.06640227
-0.28593946 0.15463828 0.28222924 0.029298645 -0.1372321 -0.41252384 0.18702266 0.13219132
0.19444208 0.34898427 -0.22271886 0.03929384 -0.15283866 -0.31368694 -0.316216 0.164184
-0.31906623 -0.17156555 0.22978498 0.013740601 -0.32536718 0.12631914 -0.21864542 -0.18812561
-0.10706438 -0.37265417 -0.32364932 -0.2508877 0.09691897 -0.21043383 0.21334407 -0.2807738
-0.21019867 -0.25161266 0.105858736 0.14437243 0.038361166 -0.3304269 -0.2592875 -0.22338262
0.23442626 0.32966268 0.30868518 0.054091927 -0.021961767 -0.28136638 0.14010611 -0.27160242
0.15743524 -0.28856614 -0.26854667 0.34924734 -0.29302153 -0.28407848 -0.28771567 -0.035638243
-0.2782972 -0.37427357 0.054716673 -0.15467477 0.00046201202 -0.25343606 -0.22502378 0.48218536
0.13043493 0.12024524 -0.114671595 -0.0054832757 0.4247763 -0.28775364 0.14500543 -0.26391754
0.4227362 -0.26751786 -0.35885033 -0.19254903 -0.3462623 0.27141148 -0.27045527 0.23427145
-0.3524871 -0.40897784 0.17284793 0.11726565 -0.2362146 0.18699679 0.0027641144 0.074366614
00000000: 0da8 513e 97a7 26be 42d0 d53d 31cb 00bd
00000010: c161 2a3e f4de 87be ebef a73c 5f16 67be
00000020: 65bc 8bbe f004 44be 5eba 85be 4df7 80be
00000030: 2a5a 563d 9d51 3fbe 0b48 67be 55b3 4bbc
00000040: e838 e33e 8bd5 1e3e faf4 a5be bce0 b73d
00000050: f066 4c3e 36bc 123e 470a 7a3e 8c10 43be
00000060: d42f bebe ec8e 5dbe cfbe 92be 4c59 95be
00000070: 69d0 633e 1509 5fbe 0507 0c3e 375b 1e3d
00000080: 093b 51be 84c4 46be f4c7 fc3e 444b c9bd
00000090: 2472 78be 597e 913e 387b a4be eafd 873d
000000a0: a866 92be 7f59 1e3e 5a80 903e b603 f03c
000000b0: 9286 0cbe 5336 d3be de82 3f3e 295d 073e
000000c0: d31b 473e 11ae b23e 6a10 64be 94f2 203d
000000d0: bd81 1cbe 939b a0be 10e7 a1be da1f 283e
000000e0: a65c a3be e1ae 2fbe c14c 6b3e 4220 613c
000000f0: 8796 a6be ce59 013e 96e4 5fbe 00a4 40be
00000100: 9244 dbbd 87cc bebe 5db5 a5be 5a74 80be
00000110: 747d c63d f77b 57be de76 5a3e 95c1 8fbe
00000120: 523e 57be 60d3 80be 77cc d83d 5ed6 133e
00000130: 9920 1d3d b72d a9be 55c1 84be 6abe 64be
00000140: 700d 703e 8cc9 a83e fc0b 9e3e 7f8f 5d3d
00000150: 2ae9 b3bc 410f 90be fa77 0f3e 790f 8bbe
00000160: b436 213e f1be 93be f37e 89be 8cd0 b23e
00000170: eb06 96be bc72 91be 784f 93be 68f9 11bd
00000180: f87c 8ebe c9a0 bfbe 971e 603d 1063 1ebe
00000190: 343a f239 5fc2 81be a26c 66be 00e1 f63e
000001a0: bc90 053e 2343 f63d f1d8 eabd 0dad b3bb
000001b0: 477c d93e 7254 93be 4e7c 143e 3320 87be
000001c0: e170 d83e 1af8 88be 3bbb b7be 932b 45be
000001d0: 4b49 b1be 72f6 8a3e 1d79 8abe dbe4 6f3e
000001e0: 3079 b4be 8b65 d1be 0cff 303e f928 f03d
000001f0: 3de2 71be 167c 3f3e 2526 353b 864d 983d

fc3.weight f4 [1, 128]
0.13785212 -0.11980449 0.114307955 0.18784976 0.13693817 -0.49288428 0.12253557 -0.11080169
-0.14685579 -0.15034664 -0.14993514 -0.20522031 0.1405605 -0.19942266 -0.13899712 0.13279302
0.15878974 0.17280617 -0.1330103 0.114004135 0.088463746 0.11402843 0.08119773 0.3075464
-0.44373626 -0.14588284 -0.19768924 -0.21240216 0.09363233 -0.112582 0.13063295 0.13836548
-0.10414775 -0.14627661 0.15324067 0.18883823 -0.20404941 0.10716689 -0.32950354 0.09377377
-0.5658367 0.14570528 0.09192658 0.094734155 0.23268962 -0.24351966 0.118804865 0.10863633
0.121920034 0.10770128 -0.47391737 0.11605022 0.21394818 -0.57273656 -0.16306446 0.14914513
-0.4419031 -0.123025045 0.10778154 0.116632424 -0.34651604 0.12773073 -0.058545105 -0.16044706
0.25929788 -0.10578533 -0.29643202 -0.13872987 0.17674313 -0.28197518 0.123356976 -0.27225575
-0.16306834 -0.28237975 0.12406575 0.09301245 0.071714886 -0.57246155 -0.17137279 -0.18518323
0.15578736 0.12897386 0.10817493 0.14700747 0.17312181 -0.10408452 0.12207664 -0.13013785
0.109513864 -0.2474765 -0.13315699 0.118168734 -0.24997637 -0.25797886 -0.5385202 0.14063732
-0.4799704 -0.20452462 0.10926387 -0.26325893 0.12266143 -0.11936571 -0.15661359 0.14229676
0.14706373 0.086689524 -0.13761728 0.16555762 0.1495313 -0.63081235 0.111211434 -0.16121614
0.11530256 -0.25747597 -0.5607411 -0.15718912 -0.5172251 0.11383373 -0.30128333 0.11500083
-0.47951105 -0.16419543 0.07238071 0.13570607 -0.14808322 0.10547167 0.11018294 0.27872184
00000000: 1b29 0d3e 0e5c f5bd 4a1a ea3d b05b 403e
00000010: 8539 0c3e 545b fcbe eef3 fa3d ffeb e2bd
00000020: 5d61 16be 78f4 19be 9988 19be 4625 52be
00000030: 17ef 0f3e 7435 4cbe 4355 0ebe e5fa 073e
00000040: c799 223e 1af4 303e da33 08be 007b e93d
00000050: 7b2c b53d bd87 e93d ff4a a63d b976 9d3e
00000060: 6631 e3be 5062 15be 0c6f 4abe f47f 59be
00000070: 4fc2 bf3d 6491 e6bd a5c4 053e aeaf 0d3e
00000080: 6a4b d5bd 89c9 15be 1feb 1c3e cf5e 413e
00000090: 54f2 50be 507a db3d b0b4 a8be 760c c03d
000000a0: adda 10bf c433 153e 0144 bc3d fb03 c23d
000000b0: 3046 6e3e 385d 79be f74f f33d b97c de3d
000000c0: 36b1 f93d 7d92 dc3d 4ca5 f2be bdab ed3d
000000d0: 3b15 5b3e dd9e 12bf 5ffa 26be 80b9 183e
000000e0: 2041 e2be 8ef4 fbbd 91bc dc3d fbdc ee3d
000000f0: 8d6a b1be d8cb 023e fecc 6fbd 3c4c 24be
00000100: b1c2 843e fba5 d8bd f0c5 97be 340f 0ebe
00000110: 27fc 343e 0d5f 90be 95a2 fc3d 1b65 8bbe
00000120: 63fb 26be 1494 90be 2f16 fe3d 507d be3d
00000130: 41df 923d d78c 12bf 597c 2fbe aca0 3dbe
00000140: b986 1f3e b911 043e d18a dd3d 2089 163e
00000150: d846 313e 442a d5bd 5103 fa3d db42 05be
00000160: ce48 e03d 7b6a 7dbe 4e5a 08be 7302 f23d
00000170: cef9 7fbe ce15 84be 76dc 09bf 3b03 103e
00000180: aebe f5be e76e 51be bcc5 df3d e0c9 86be
00000190: ea35 fb3d 0276 f4bd 505f 20be 3eb6 113e
000001a0: e097 163e 478a b13d 8beb 0cbe f087 293e
000001b0: bc1e 193e eb7c 21bf d2c2 e33d d815 25be
000001c0: c023 ec3d e4d3 83be bb8c 0fbf 2ff6 20be
000001d0: dd68 04bf a921 e93d cf41 9abe 8e85 eb3d
000001e0: 7982 f5be d922 28be 563c 943d 88f6 0a3e
000001f0: 21a3 17be 8801 d83d 98a7 e13d a1b4 8e3e
