checkpoint_actor.pth (torch_old, 89221 bytes, 10 tensors)

fc1.weight f4 [128, 33]
000000 57 7f 08 3e 22 97 5e be b8 3e 9a bb 82 3d 8a 3e
       0.13329826 -0.2173734 -0.0047071837 0.27000052
000010 6d 74 02 3e 6f 83 a5 be 29 94 3f bd ba dc 99 bd
       0.12739725 -0.32326838 -0.046772156 -0.075128034
000020 42 d2 55 be 11 2e 82 3e 54 9e 83 bd 55 dd 90 3c
       -0.20880988 0.2542577 -0.06426683 0.017683664
000030 b9 ab 49 bd 35 ee 93 bd 64 02 cf 3d e9 48 c0 3d
       -0.049236033 -0.07223169 0.10107878 0.093889065
000040 a7 16 30 3e 09 f8 bf be 14 14 78 3e b8 75 bd bd
       0.17196141 -0.37493923 0.24226409 -0.09250969
000050 24 b7 84 bc 82 5f ad bd 2a 04 4a 3d 57 f8 df 3b
       -0.01620061 -0.08465482 0.049320377 0.0068350243
000060 18 30 c0 bb 26 2e 08 bd a7 93 bf 3c 48 8c 74 be
       -0.005865108 -0.033247136 0.023385836 -0.23881638
000070 8e e6 80 bd 5d cd a3 3d a6 fd 50 3e a4 bb 94 bd
       -0.06293975 0.07998154 0.20409259 -0.07262352
000080 23 85 48 bf 74 42 34 bd e9 86 b8 3d 44 ce 8d 3d
       -0.7832815 -0.044008687 0.09010107 0.06924108
000090 88 38 0d 3c 5d c8 90 be 48 3f 83 3d b7 37 74 bd
       0.008619435 -0.28277865 0.06408554 -0.059623446
0000a0 66 25 0b 3e 01 d9 50 bd 02 9e 72 bd bf 5f 90 bc
       0.13588485 -0.0509882 -0.05923272 -0.01762378
0000b0 fb c9 07 3d 89 75 3f bd 1d f5 99 3d 65 7e 09 bd
       0.033151608 -0.04674295 0.07517455 -0.033567805
0000c0 65 af ba 3d 48 ff c3 3e 4e 4d 82 3e 05 0c 0a 3f
       0.09115485 0.38280702 0.25449604 0.5392459
0000d0 f8 d6 90 3e 95 54 f5 3c 43 66 4a bd 4a dd 9b 3c
       0.28289008 0.029947558 -0.04941393 0.019026417
0000e0 06 8d 7a bd 7a 8b 91 3d 16 70 48 be 04 78 dd bc
       -0.061169647 0.07106681 -0.19574007 -0.027034767
0000f0 d5 b9 20 3e a2 a4 77 be f1 c8 37 bd 55 53 1f be
       0.1569589 -0.24183896 -0.044869367 -0.15559132
000100 25 83 31 bd 5c 6f 54 be b4 2b c8 3d 4b e4 e5 bd
       -0.04333796 -0.20745605 0.09773961 -0.11225184
000110 5e ee 75 3d d4 8c 8e be 00 d0 89 3d 17 c8 06 bf
       0.060041778 -0.27841818 0.06729126 -0.5264906
000120 3a a0 d0 be 65 3e 77 3d e4 aa 76 3d d7 bc 6f 3c
       -0.40747243 0.06036224 0.060221568 0.014632425
000130 e7 5a 4d bc d5 02 dc 3c 9f f3 7e bd 28 b1 13 3e
       -0.01253388 0.02685682 -0.062244054 0.14423048
000140 b1 b0 cf 3d 31 58 1d bd 66 b2 63 bd 86 b9 b4 3e
       0.10141123 -0.038414184 -0.055590056 0.35297793
000150 8a 3e 28 be 7d 03 33 be d6 59 49 bd ab 77 ef bc
       -0.16430107 -0.174818 -0.04915794 -0.029231867
000160 d2 13 2f 3c 52 6d 6e bc f2 5b 57 3c 69 fa 33 3d
       0.010685878 -0.014552431 0.01314448 0.04393998
000170 9f f2 24 be 0b 30 c3 3d bb c6 85 3d cb 59 97 3d
       -0.16108178 0.09530648 0.065320455 0.073901735
000180 6b 92 a5 bd f8 b7 76 bd 9b 79 4b bf 4e d9 c8 3c
       -0.08084568 -0.06023404 -0.7948243 0.024517681
000190 b4 69 3c 3e 6b 2e 40 3d 38 ab 9f 3e 2b 34 6e 3e
       0.18399698 0.046919268 0.31185317 0.23262088
0001a0 4a 51 af be 51 4c 88 be 24 7c d8 3d 16 32 32 bd
       -0.34241706 -0.26620725 0.10570553 -0.043504797
0001b0 a7 df cb 3d d8 c0 09 bd f4 e1 55 bd 49 8f fe bc
       0.09954768 -0.033631176 -0.05221744 -0.031074183
0001c0 70 8c 37 bd e8 de 99 bd 43 82 d6 bd 71 50 05 bf
       -0.044811666 -0.07513219 -0.10474064 -0.5207587
0001d0 d1 b5 06 bf 02 18 c8 3e 04 a4 2e be 88 f1 b7 bc
       -0.5262118 0.39080817 -0.17054754 -0.022454038
0001e0 18 9c 1b bc 0a e6 e4 3a 3c 11 03 bd 51 b4 b6 3c
       -0.009497665 0.0017463577 -0.031998858 0.022302778
0001f0 5b ce 3a bd 71 af 86 3b ea 6d 9b 3d 1a 83 1f 3d
       -0.045606952 0.0041102697 0.07589324 0.038943388
000200 ca 3f 63 3d 89 7f 45 be f5 c0 94 3d 8b e0 15 bf
       0.055480756 -0.19286932 0.07263366 -0.5854575
000210 a0 37 02 3d 4c 81 6e 3d 58 8c 71 be b7 33 0b bf
       0.03179133 0.058228776 -0.23588693 -0.54375786
000220 f9 8b 99 be 64 6e a6 be 72 b3 a7 be 70 ce 14 3d
       -0.29989603 -0.32506096 -0.32754093 0.036329687
000230 81 29 8a 3d a6 aa 29 be ce 11 86 3d 9c bf 5a 3c
       0.067461975 -0.16569003 0.06546365 0.013351347
000240 93 f7 c4 3c 69 fa 60 bb c6 73 2f 3d 4f 17 1b 3e
       0.024043834 -0.0034328944 0.04283502 0.1514561
000250 57 ee ad bd e4 b6 cb 3e 69 f7 24 3e 4f 6d b2 3d
       -0.08492725 0.39787972 0.16110004 0.08712255
000260 ad af 22 3d 6b 65 e5 bd bf b8 89 bd 49 08 84 bd
       0.03971832 -0.112009846 -0.06724691 -0.06446893
000270 c9 29 97 3c dd f4 9a 3d b5 d1 a4 3d c6 cf af 3d
       0.018452542 0.07566235 0.08047811 0.085845515
000280 93 38 06 3e 2d 76 15 bd 93 a8 1b be 5f 0e a6 bd
       0.13107519 -0.036489654 -0.15201025 -0.0810821
000290 ea 4b 97 3e eb 03 30 3d 80 a7 c9 3d 68 1f 99 3d
       0.29550105 0.042972486 0.09846401 0.074766934
0002a0 ca 62 64 bd 4a c0 28 be 08 8a 10 3f c1 75 16 be
       -0.055758275 -0.16479602 0.5646062 -0.14693357
0002b0 8c d6 95 3d bd 11 20 bc 28 2c 69 bd ae 03 58 bc
       0.07316312 -0.009769854 -0.056926876 -0.013184471
0002c0 cd da 8c 3c b1 5f 08 3d b6 f7 e3 bd 82 ea 86 bd
       0.017194176 0.033294383 -0.111312315 -0.065876976
0002d0 6e af 0e be 33 6b a5 3d 87 76 9d 3e b2 56 80 be
       -0.13934109 0.08077087 0.30754492 -0.25066143
0002e0 e0 0a 1a bf 58 23 28 3a 86 35 ab bc 9f f6 3b 3c
       -0.60172844 0.0006413958 -0.020899545 0.011472373
0002f0 39 48 8a bd b5 2d 50 bd 41 b5 32 3c 60 9c 06 3e
       -0.06752057 -0.05082484 0.010907472 0.1314559
000300 18 16 a9 bd 17 7f 78 3d f1 17 48 bd e2 7d ce 3d
       -0.08256167 0.060668077 -0.048850957 0.10082604
000310 aa 93 63 bd e0 35 fb be 16 6d f0 3d b9 1c d7 3c
       -0.055560745 -0.4906454 0.117395565 0.026258813
000320 5b 79 a0 bd a5 1b 17 3e 9d fe 8c 3d 49 f2 54 be
       -0.07835647 0.1475664 0.06884501 -0.2079555
000330 a7 53 9a 3d 7d f5 35 bc 4a fb aa 3d 95 d8 6e bd
       0.07535487 -0.011105892 0.08348711 -0.058312017
000340 40 5d 30 3d 9d 42 e0 3c 73 f5 bc bc ee 68 c8 ba
       0.04305768 0.027375514 -0.023066258 -0.001529006
000350 86 5a b0 3d 4f 67 21 3e a8 fc e0 be 01 03 5a 3e
       0.08611016 0.15762065 -0.4394276 0.21290208
000360 80 bf f2 be b5 b0 49 3d 32 02 2c bd ba 54 95 bd
       -0.47411728 0.049240787 -0.04199428 -0.07291551
000370 42 25 91 bc e3 49 fe bc b5 b0 91 bd 6a ee 8e 3d
       -0.017717961 -0.031041091 -0.07113782 0.069790676
000380 ed 8b 0b 3e d4 6b bc 3d b6 be 1b be 30 70 bd bb
       0.13627596 0.09200254 -0.15209469 -0.005781196
000390 c2 35 de bd 93 d7 66 bd 54 8c 59 bf 92 b0 90 3d
       -0.10850097 -0.05635793 -0.8497975 0.07064928
0003a0 1b 52 28 3d 65 52 68 bd aa f7 07 be f6 50 45 3e
       0.041093927 -0.056719203 -0.1327807 0.19269165
0003b0 21 58 bf 3e cf 48 8e be f8 14 44 bc 3d 6d 6d 3e
       0.37371925 -0.27789924 -0.01196789 0.23186202
0003c0 40 69 cb bd 3d 16 df 3d 63 87 db bb 1e 31 91 bc
       -0.09932184 0.108929135 -0.006699489 -0.017723616
0003d0 29 fc 75 3e 67 fc 4f 3e ba 7c 62 3d 0f 4f 8c 3e
       0.24021973 0.20311128 0.05529473 0.27404067
0003e0 14 83 89 3e 51 05 4f 3c 62 57 ec 3e 9c 43 f9 bc
       0.26857817 0.012635545 0.46160418 -0.030427746
0003f0 43 67 bf 3d d5 1b 43 3d b3 7d 46 3e dd 3d 9c 3d
       0.093458675 0.047633965 0.19383888 0.07628987

fc1.bias f4 [128]
000000 b2 6f bd 3e c5 6c 00 bd cd 86 32 be 9d 8c 12 be
       0.3699928 -0.03135373 -0.17434235 -0.14311452
000010 1d b9 52 be 2d e9 21 3e 76 f7 e2 3d db f1 9f be
       -0.20578428 0.15811606 0.11082356 -0.3123921
000020 8a ee c4 be d7 d7 9f 3b f6 e7 13 be 7b 82 67 be
       -0.3846324 0.004878025 -0.14443955 -0.22608368
000030 84 4d fb bd d8 29 ab 3b b7 60 6a be 05 0e b9 3d
       -0.12270644 0.005223494 -0.22888456 0.09035877
000040 09 57 9e be 07 5d eb bd 82 f5 3a bd cc 78 be 3b
       -0.30925778 -0.11492353 -0.04564429 0.00581274
000050 09 05 c1 be f3 84 f1 bd 9c 4c 2d be e8 ca 34 3c
       -0.37699154 -0.11792936 -0.16923755 0.011034705
000060 06 11 0a 3e 67 6c 19 be 44 cd a1 bd 2e 40 9b be
       0.13483056 -0.14982758 -0.079004794 -0.30322403
000070 59 32 9e be 79 b4 58 be 0c 33 72 3e 73 b1 81 be
       -0.30897787 -0.21162595 0.23652285 -0.25330696
000080 22 fe 66 3d b7 5f 1b be cb 4e 92 3d e2 ec ca 3e
       0.056394704 -0.15173231 0.07143935 0.39633852
000090 72 ab 97 be 5c 75 86 bc 3b 55 13 be 29 30 88 bd
       -0.2962299 -0.016413383 -0.14387982 -0.06649811
0000a0 87 43 e0 bd e0 e5 3d bd 56 21 c9 bd 1c 59 69 3e
       -0.1095038 -0.046361804 -0.098208115 0.22787899
0000b0 da 57 77 3c 69 ed fe bc d1 61 5e be bc 51 86 be
       0.015096629 -0.031119065 -0.21717001 -0.26234233
0000c0 71 94 83 3c 43 27 94 bd 86 1e c9 bc 11 2c 96 3c
       0.016061993 -0.07234051 -0.024550688 0.01833156
0000d0 22 b5 07 be bd 87 89 bc 29 f2 7e bd 11 1e ce bd
       -0.1325269 -0.016788358 -0.06224266 -0.100643285
0000e0 1a 60 ea 3d 8d 5e 85 bc 35 10 93 3d 6d 5b 49 be
       0.11444111 -0.016280437 0.071808256 -0.19663782
0000f0 fb 11 a8 bc bf 29 e8 3c aa 0d af bd fd a3 6f be
       -0.020516386 0.028340219 -0.08547528 -0.234024
000100 6f ff a3 be 07 e5 05 3c a5 6d 1d be a6 9a 7c 3e
       -0.32030818 0.00817228 -0.15373857 0.24668369
000110 e3 f4 c0 bd 90 d5 20 bd 75 8f f0 bd b9 49 4e be
       -0.094217084 -0.03926617 -0.11746112 -0.2014531
000120 d1 95 66 3d 15 e2 0e be b5 dd 25 3d 39 51 22 3e
       0.05629522 -0.13953431 0.04049464 0.15851296
000130 f4 2f f8 bc 68 fd 10 be 52 49 94 3d bd ea 97 bd
       -0.030296303 -0.14159167 0.07240547 -0.0741782
000140 11 d4 1a be 65 8d 73 3e 54 38 e9 bd 4b bb 06 be
       -0.1511996 0.23784406 -0.11387697 -0.13157384
000150 c1 67 e6 3d b7 48 9a bd 52 23 bd bd 36 77 ef 3b
       0.11250258 -0.075334005 -0.092352524 0.007307912
000160 46 41 90 bd eb a9 35 be bc 94 71 be 62 73 0f be
       -0.070437 -0.177406 -0.23591894 -0.14008859
000170 61 b2 db 3e b9 88 4a 3e 4c 97 a9 be 2d 55 00 be
       0.4290953 0.19778718 -0.33123243 -0.12532492
000180 36 03 18 be d3 6e 4a be 35 8a 89 be 98 9b 6d be
       -0.14844975 -0.19768839 -0.26863256 -0.23203886
000190 db 00 c7 3c 96 e4 f7 bc a1 06 2a be a0 db 16 be
       0.0242924 -0.030260365 -0.16604091 -0.14732218
0001a0 bc e2 9c be 9e de 08 be 8c 44 23 be 51 3e 1b be
       -0.30641735 -0.13366172 -0.15944117 -0.1516049
0001b0 ef e6 25 3e 94 aa 7e be f2 af 88 bc 3b 44 d7 bd
       0.16201375 -0.24869758 -0.01668546 -0.10511061
0001c0 c9 59 1d 3d cf 8c 62 bd 7d d3 14 be f2 d2 79 be
       0.038415704 -0.055310067 -0.14533801 -0.24396876
0001d0 b3 10 99 bd 5d a2 ea bc 55 de 4b bd 64 1b d5 bd
       -0.07473888 -0.028641874 -0.04977258 -0.10405615
0001e0 74 48 68 be 46 4d 37 bd ac 0f c1 bd d8 4f af 3e
       -0.22683889 -0.044751428 -0.09426817 0.34240603
0001f0 de f0 02 be bc f7 03 be b2 f0 85 bd 55 a8 a1 be
       -0.12787196 -0.12887472 -0.065400496 -0.3157374

bn1.weight f4 [128]
000000 3d dc 8b 3f 52 13 ac 3f 9d 48 7f 3f 79 33 a7 3f
       1.0926586 1.3443396 0.99720174 1.3062583
000010 2e ef bf 3f 8b bb aa 3f ac b8 88 3f df d6 40 3f
       1.4994867 1.3338484 1.0681357 0.7532787
000020 51 1d 03 3f fe ff 12 3f 43 b6 03 3f bf 5d 33 3f
       0.5121661 0.57421863 0.51449984 0.7006492
000030 a6 66 4c 3f f1 68 6e 3f 01 dd 5b 3f c3 b0 91 3f
       0.7984413 0.9312888 0.858841 1.1382068
000040 e4 20 a1 3f e9 ae 82 3f 24 73 8e 3f d1 04 8c 3f
       1.2588162 1.0209628 1.1128888 1.093897
000050 6b a7 7f 3f e2 db a5 3f 84 95 56 3f b6 08 aa 3f
       0.99864835 1.2957728 0.8382189 1.3283908
000060 ec 56 90 3f 1d b1 33 3f 7c dc ae 3f 0a b5 99 3f
       1.1276526 0.7019213 1.3661036 1.2008374
000070 72 f9 c4 3f 90 f0 47 3f b9 18 92 3f 13 ed d2 3f
       1.5388625 0.78101444 1.1413795 1.6478599
000080 9a 5c 87 3f fb 9d ac 3f af 21 98 3f 12 ef a0 3f
       1.0575135 1.3485712 1.188528 1.2572958
000090 bb 27 73 3f 4e ac a0 3f 29 03 b0 3f 44 e6 8e 3f
       0.949825 1.2552583 1.3750964 1.1164021
0000a0 36 d5 a2 3f d2 a1 9a 3f c3 d3 6e 3f f5 ce 4e 3f
       1.2721317 1.2080634 0.9329187 0.8078454
0000b0 e4 eb 93 3f 93 87 61 3f be 38 9d 3f d1 69 5f 3f
       1.1556363 0.88097495 1.2282941 0.8727084
0000c0 10 9d 85 3f 5f a5 a6 3f 67 58 42 3f 93 74 8f 3f
       1.0438557 1.3019217 0.7591614 1.1207451
0000d0 7d 24 65 3f 42 8d a2 3f 3f 90 71 3f f4 20 6f 3f
       0.895088 1.2699358 0.9436073 0.9340966
0000e0 9a e7 9b 3f 43 42 a3 3f 85 3e 6c 3f f4 fe 81 3f
       1.2180054 1.2754596 0.922829 1.015593
0000f0 f8 e2 6c 3f 2b 52 9f 3f 52 23 f8 3e b9 ae 98 3f
       0.92533827 1.2446951 0.48464447 1.1928321
000100 63 70 33 3f 48 56 8e 3f a8 48 61 3f 8e 52 7c 3f
       0.70093364 1.1120081 0.8800149 0.9856347
000110 bc 5f 90 3f b6 0a 73 3f 02 85 45 3f f3 38 a8 3f
       1.1279216 0.9493822 0.7715608 1.314238
000120 46 6b 99 3f f2 93 81 3f 46 4a 71 3f ea 6e a7 3f
       1.1985862 1.0123274 0.9425396 1.3080723
000130 76 43 98 3f 69 2a 8f 3f 6e f0 82 3f d7 17 76 3f
       1.1895587 1.1184818 1.0229623 0.96130127
000140 fb 18 96 3f fd 14 5d 3f fc 4a 5f 3f a0 67 99 3f
       1.1726373 0.8636015 0.8722379 1.1984749
000150 a9 35 ae 3f 05 da 53 3f f3 39 7d 3f a4 42 7c 3f
       1.3610126 0.82754546 0.9891655 0.98539186
000160 36 1d 8d 3f 75 ba 72 3f 2a d7 3c 3f 16 fb 97 3f
       1.102454 0.9481576 0.73765814 1.18735
000170 88 55 a0 3f f2 29 d6 3f 9a 14 36 3f 3b 6b 47 3f
       1.2526102 1.6731551 0.71125185 0.77897996
000180 c8 ea 77 3f 54 40 82 3f 15 b9 72 3f 81 e6 85 3f
       0.9684262 1.0175881 0.9481366 1.0460969
000190 ae f6 72 3f f9 b0 88 3f 34 a6 aa 3f a2 d7 9e 3f
       0.94907653 1.0679008 1.3331971 1.2409556
0001a0 ea d9 21 3f b6 f4 40 3f 71 d0 81 3f b0 96 b9 3f
       0.63223135 0.753734 1.0141736 1.4499111
0001b0 ab a0 c5 3f 4a 60 37 3f b0 e1 90 3f c5 25 7f 3f
       1.5439657 0.716313 1.1318874 0.99667007
0001c0 17 b0 09 3f e1 de 7e 3f 1f 2d 4a 3f 8f f1 8a 3f
       0.53784317 0.99558836 0.789751 1.0854968
0001d0 44 70 c3 3f e5 92 83 3f 04 47 9b 3f f9 28 6c 3f
       1.5268636 1.0279204 1.2131047 0.9225002
0001e0 de 4b 81 3f 12 84 82 3f 4a e0 5e 3f e6 40 47 3f
       1.0101278 1.0196555 0.8706099 0.778334
0001f0 8a ef 8f 3f 98 b4 b3 3f e3 ee 26 3f ec 67 b7 3f
       1.1244977 1.4039488 0.6520826 1.432859

bn1.bias f4 [128]
000000 4a 65 0f 3d a1 ac 67 3e 1a fa ab be 45 e2 ac bb
       0.035008706 0.22624446 -0.3358925 -0.005275997
000010 ae 78 d5 bd 0a d2 a6 bc 40 a7 a3 3d 9a 53 8f 3d
       -0.104234084 -0.020363826 0.07990885 0.069983676
000020 11 21 ec 3e a0 33 aa 3e e0 e0 c1 bd db 39 33 be
       0.46118978 0.33242512 -0.094667196 -0.17502539
000030 3f 92 86 3e 81 48 05 3e 02 f0 97 3e 2b fa 40 3e
       0.26283452 0.1301594 0.296753 0.18845432
000040 02 8f a5 3e 89 31 32 be 58 d5 6e 3e 56 8e 93 3e
       0.3233567 -0.17401709 0.23323572 0.2881953
000050 a3 7f 2a be b0 2c 25 3e 69 23 4d bc 6d 22 a1 bd
       -0.16650252 0.16130328 -0.0125206495 -0.07867894
000060 05 50 9a 3e e0 97 28 3d ce e7 f4 3d f0 ac 74 3c
       0.30139175 0.041160464 0.11958276 0.01493381
000070 1f be 41 3e c1 5d 30 3c 45 c5 c6 3d 57 0e 2f 3d
       0.18920182 0.01076454 0.09705595 0.042738285
000080 18 74 20 3e 0b 72 16 bd af 93 26 be b5 5e b0 3e
       0.15669286 -0.036729854 -0.16267274 0.34447256
000090 ef ed dd bd 5c 9d 31 bd ca cf bf 3d 67 7f 0e bc
       -0.10836398 -0.04336296 0.093658045 -0.008697367
0000a0 f0 38 0f bd 8e 6e 57 3a 53 23 7a bd 12 5d 18 3e
       -0.03496641 0.0008218073 -0.061068844 0.14879254
0000b0 a7 a0 4f be a5 f7 f2 3c 2a 28 be 3d 87 57 1a 3e
       -0.20276128 0.029659102 0.092850044 0.15072452
0000c0 d0 5a 37 3c eb 31 17 3e 02 a5 f8 3d 8a 47 20 3c
       0.011191085 0.14765136 0.12140848 0.009782681
0000d0 16 d0 06 3e c3 4d a4 bd f7 02 71 3d 1e 5f 46 3d
       0.13165316 -0.08022644 0.058840718 0.048430555
0000e0 29 23 d3 3e 07 22 52 3d 24 f7 08 3e 99 bc ae 3e
       0.41237763 0.051301982 0.13375527 0.34128264
0000f0 89 80 e7 bd 62 9e 6a 3c 60 a2 0e 3e a3 75 96 bc
       -0.11303813 0.014319988 0.13929129 -0.01836664
000100 cd 0d 52 be bf 40 b2 3d 52 88 5d be 44 ae f5 3d
       -0.20513077 0.087037556 -0.21634033 0.11996129
000110 b4 58 eb 3d ed 63 13 bd 3a e7 fd be cd 79 04 3e
       0.11491528 -0.03598397 -0.49590474 0.12937088
000120 d4 05 92 be 9b be 8a 3d 80 41 e4 bb a0 35 83 be
       -0.28520072 0.06774636 -0.006965816 -0.2562685
000130 e4 91 3d 3d fa 1c 26 3d 89 79 fc bd f9 5d 55 3e
       0.04628171 0.040554978 -0.123278685 0.20836629
000140 75 ec 4c 3e 64 b3 b4 3e d8 77 05 bc 54 41 6f bd
       0.20012076 0.35293114 -0.008146249 -0.05841191
000150 b3 1e 91 3d 61 4d f9 bd cc fb 7f 3b b9 32 09 3e
       0.070859335 -0.12172962 0.0039059995 0.13398255
000160 9a e0 cb 3d de 8a 16 be 8a d4 4f 3e 24 72 fb 3c
       0.09954949 -0.14701411 0.20295921 0.030694075
000170 99 c9 69 bd 67 68 11 be 63 af e9 be 5d 8b 1e be
       -0.057077024 -0.14199983 -0.45641622 -0.1548285
000180 9b e6 2b be 0f 20 29 3e 05 20 87 3e 3e 06 0b 3d
       -0.16787188 0.16516136 0.26391616 0.0339415
000190 a3 85 3a 3e ac d1 f6 bd 74 e8 7c 3d 02 cb 46 3e
       0.18215041 -0.120517105 0.061745122 0.19413379
0001a0 4b b5 3b bd c4 8a 95 bd 18 d4 35 be 87 7d 33 3d
       -0.04582719 -0.07301858 -0.17756689 0.043820884
0001b0 41 09 07 3f 03 e0 ea 3d 51 3f e8 3d 2b 1a 86 be
       0.52748495 0.11468508 0.11340202 -0.2619184
0001c0 8b 66 4b 3e cb 54 15 be e4 f1 29 bd 47 91 31 3e
       0.19863336 -0.14583127 -0.04149045 0.17340575
0001d0 8d 4a 90 bd 8e f9 c3 3d 49 c6 ef 3e 83 7c 69 3d
       -0.070454694 0.09569083 0.46830967 0.05700351
0001e0 9d 13 eb bd e9 4e 38 bc 8c e9 46 3e 09 2a 08 be
       -0.1147835 -0.011249282 0.19425029 -0.13297285
0001f0 c0 30 60 3e 9a 5b 5c be ea bd 28 3e e2 17 8c 3c
       0.21893597 -0.21519318 0.16478696 0.017101232

bn1.running_mean f4 [128]
000000 a2 9d b5 3f 29 d3 a7 3e c7 c1 a5 3d de 02 af 3d
       1.4188731 0.3277829 0.08093601 0.08545469
000010 35 04 a3 3d d0 52 85 3e a9 8e e6 3e db d7 9e 3d
       0.07959787 0.26039743 0.45030716 0.07756015
000020 59 88 74 3e 4f 7e b7 3e 4c 5f ab 3d 28 dd a7 3d
       0.23880138 0.35838553 0.08367786 0.08196479
000030 5d 78 57 3e f4 41 0b 3f fd 2c 2c 3f c1 47 09 3e
       0.21042009 0.5439751 0.67256147 0.13406278
000040 4e d9 9d 3d 5a e2 e6 3d ef 3f 48 3f bb 92 1d 3f
       0.07707463 0.11273642 0.78222555 0.6155202
000050 dd 6a 5a 3d de 87 5b 3f 90 7d 89 3e 1b e1 b6 3e
       0.05332457 0.8575419 0.2685361 0.35718617
000060 57 ec 1d 3f 12 fa 1b 3d 8a 88 c3 3e 8b 8a 6d 3e
       0.6168875 0.038080283 0.3819011 0.23197381
000070 bd d3 cf 3d ab b4 76 3d 53 9b 1c 3f c6 3d 00 3e
       0.10147808 0.060230892 0.61174506 0.12523565
000080 20 76 d5 3e f9 50 d1 3e dc a9 b0 3e b6 99 e6 3f
       0.41691685 0.4088209 0.34504592 1.8015659
000090 10 ec 2d 3d 01 cf e6 3d f1 d4 cb 3e 69 a8 06 3f
       0.042461455 0.112699516 0.398109 0.52600724
0000a0 84 75 7d 3e 58 30 41 3d 95 16 2e 3f d9 fa 91 3f
       0.2475186 0.047165245 0.6800321 1.1404678
0000b0 e8 09 fa 3e 9c 18 2f 3e d9 80 d6 3d 18 ee d2 3d
       0.48835683 0.17099231 0.104737945 0.10299319
0000c0 2d 1b 7e 3f b6 be 29 3f bc 07 15 3e d2 4c 36 3d
       0.99260217 0.66306627 0.14553732 0.044506855
0000d0 ad c4 ee 3e d2 81 bd 3e b1 e8 57 3e 52 59 0c 3f
       0.46634427 0.37013108 0.21084858 0.5482379
0000e0 85 c5 ab 3e 7b 64 8d 3f 66 1e 71 3f 47 14 c7 3e
       0.33549133 1.1046289 0.9418701 0.38882658
0000f0 d5 dc e0 3d 31 53 0b 3f f2 49 8e 3d e8 04 47 3f
       0.1097962 0.54423815 0.06947698 0.7774186
000100 0e d2 f0 3e 50 49 79 3f 29 d3 13 3e 39 6c 49 3f
       0.4703526 0.9737749 0.1443602 0.7868076
000110 78 56 a2 3e 9c 95 a4 3e 00 16 1f 3e 92 ed 82 3d
       0.31706595 0.32145393 0.15535736 0.06392969
000120 92 90 3a 3e 88 b2 c1 3d a2 c2 12 3f cc 75 dc 3e
       0.18219212 0.0945788 0.57328236 0.43058622
000130 66 bb a4 3e 57 dc 28 3e d7 d8 a3 3d 0e ac 97 3e
       0.32174224 0.16490303 0.08000343 0.29623455
000140 3a 69 e4 3e 89 0c 34 3f 79 4f d9 3d 02 45 7e 3e
       0.44611531 0.7033163 0.10610861 0.24831012
000150 ff 05 18 3f 6f 70 cc 3e b4 fa 1d 3f 28 da 04 3e
       0.5938415 0.3992953 0.6171067 0.12973845
000160 59 84 35 3e ff a5 44 3f bb 40 d2 3e de c6 84 3d
       0.17726268 0.7681579 0.4106501 0.064832434
000170 6f 27 d3 3f 18 12 c0 3f 55 81 4c 3e 97 a6 09 3f
       1.6496409 1.5005522 0.19971211 0.5376982
000180 f7 05 ef 3d 17 63 4e 3e fd da db 3d 02 7b 28 3e
       0.116710596 0.20154987 0.10735128 0.16453174
000190 da 50 f4 3c 0c 34 1c 3e 20 2e 83 3e 46 81 c9 3d
       0.02982371 0.1525423 0.25621128 0.0983911
0001a0 c8 46 d2 3d 3b 4d b6 3e 22 5b 79 3e f6 51 06 3e
       0.10267407 0.35605797 0.2435117 0.13117203
0001b0 ba 7f 88 3f 9e fa b6 3e b2 82 be 3e c6 ce 8e 3e
       1.0663979 0.3573808 0.37209088 0.2789213
0001c0 76 03 04 3e 43 32 ed 3d fa 5c d6 3e c9 f7 28 3e
       0.12891945 0.11581852 0.4186781 0.16500773
0001d0 70 37 29 3e 9c 64 82 3e 51 ec be 3e 94 96 77 3d
       0.16525054 0.25467384 0.3728967 0.060446337
0001e0 82 2b 0d 3e 6e 66 81 3e 8f 10 85 3e 81 3a 25 40
       0.13786128 0.2527346 0.25989196 2.5816958
0001f0 bf 26 0c 3f 9a e3 87 3e 4f be c0 3e 41 75 a1 3e
       0.5474662 0.26540834 0.37645194 0.3153477

bn1.running_var f4 [128]
000000 5c e6 b0 3e 3b d4 90 3e fb 48 32 3d 2d 87 32 3d
       0.3455075 0.2828692 0.04352663 0.043585945
000010 9a 0b 53 3d a6 dc 1e 3e ec d5 db 3e be 60 ab 3d
       0.051524736 0.15513858 0.42936647 0.083680615
000020 22 d7 74 3e e1 6f e8 3e 97 d9 6a 3d f1 b1 37 3d
       0.23910192 0.45397857 0.057336416 0.044847433
000030 55 62 19 3e 57 af f8 3e da 96 b4 3e 9b fa bf 3d
       0.14978917 0.48571274 0.3527134 0.09373971
000040 bb 98 56 3d 22 2c 80 3d bf 25 86 3e 32 ac 72 3e
       0.05239175 0.06258418 0.26200673 0.236985
000050 61 a2 34 3d ff b7 82 3e d2 92 43 3e e7 4e 51 3e
       0.04410017 0.25531003 0.19098976 0.20440255
000060 3b 34 57 3e 02 06 d3 3c 22 d6 60 3e 8f f3 33 3e
       0.21016018 0.0257597 0.21956685 0.17573379
000070 4b 49 88 3d 2b 4a 32 3d fc 53 05 3f f8 45 92 3d
       0.066546045 0.043527763 0.52081275 0.07142252
000080 9d 1b a7 3e bd 2b 85 3e b2 c8 3b 3e e4 49 dc 3e
       0.32638255 0.26009932 0.18338278 0.43025124
000090 8b d1 2d 3d a2 91 a5 3d d6 9d 81 3e 94 20 f0 3e
       0.042436164 0.08084418 0.25315732 0.46899855
0000a0 ae 9e 0f 3e f2 44 ec 3c a2 5c fb 3e 61 be 44 3f
       0.14025375 0.02884147 0.4909411 0.76852995
0000b0 1f 88 d0 3e 62 3e e3 3d e8 eb d5 3d 9b c8 93 3d
       0.40728852 0.11095883 0.10445386 0.07215997
0000c0 a1 af b2 3e 3e 73 32 3f ea 7c 52 3d 17 7f a0 3c
       0.3489962 0.69707096 0.05138866 0.019591851
0000d0 08 8c b4 3e 16 c0 70 3e 99 e5 14 3e e2 bb f9 3e
       0.35263085 0.23510775 0.1454071 0.48776156
0000e0 11 5e 85 3e 9a 9b c6 3f e7 34 2d 3f 53 21 8e 3e
       0.2604833 1.5516236 0.6765885 0.277598
0000f0 d2 40 bb 3d ed 0e d6 3e 7f 16 1a 3d c8 1d 85 3f
       0.09143223 0.41808262 0.03761911 1.0399714
000100 0d d5 dd 3e 9a fe 76 3f 9f de e9 3d 13 11 48 3f
       0.43326607 0.9648224 0.11419415 0.78151053
000110 18 16 4d 3e 3a 8a 14 3e b9 bc e7 3d fd 18 3e 3d
       0.2002796 0.14505854 0.11315293 0.04641055
000120 ff bf 28 3e c5 2c 5d 3d 54 e0 20 3f 43 f4 4d 3e
       0.1647949 0.053997774 0.628423 0.2011271
000130 9a 29 83 3e eb e6 e0 3d 41 45 53 3d ad 74 2b 3e
       0.25617677 0.10981544 0.051579718 0.16743727
000140 53 7d 41 3e da 26 06 3f a8 7a 9b 3d 7d ce 54 3e
       0.18895464 0.5240303 0.07591754 0.20781894
000150 3a ab 5f 3e c2 4c 90 3e 6c c0 d4 3e 09 ca d8 3d
       0.21842661 0.28183562 0.41553056 0.1058541
000160 3e 4a 05 3e a1 0d 62 3f e9 12 84 3e 9d 2c 48 3d
       0.13016602 0.88302046 0.25795677 0.04887067
000170 c0 70 15 3f 1e f3 1e 3f 1f 7a 24 3e 6e fa 9b 3e
       0.5837517 0.6208972 0.1606221 0.304645
000180 39 a0 b2 3d 23 0f 0a 3e c6 c8 72 3d 09 a1 e4 3d
       0.08721966 0.13482337 0.059273504 0.111635275
000190 ca 32 eb 3c f5 59 cf 3d 56 fb 14 3e fb a7 97 3d
       0.028710742 0.1012458 0.14549002 0.074050866
0001a0 8c c9 aa 3d c6 f1 9c 3e 72 6e 50 3e 47 be 88 3d
       0.08339223 0.30653208 0.20354632 0.066769175
0001b0 06 b6 08 3f 2e 01 61 3e 71 49 a4 3e 04 4b 35 3e
       0.53402746 0.21973106 0.3208728 0.17704397
0001c0 20 41 ab 3d e3 10 b0 3d e5 bb bc 3e 1f 58 9f 3d
       0.08362031 0.08596971 0.36862102 0.0778048
0001d0 c4 18 07 3e 93 c8 1d 3e 4a c2 c6 3e 89 92 04 3d
       0.13193041 0.15408544 0.38820106 0.03236631
0001e0 1d 5c a2 3d 65 e6 74 3e a6 b7 94 3e a5 67 54 3f
       0.079277255 0.23916014 0.29046363 0.8297065
0001f0 b4 e6 17 3f f6 01 21 3e 94 e3 6e 3e 37 a5 ac 3e
       0.593364 0.15723404 0.23329002 0.337198

fc2.weight f4 [128, 128]
000000 d9 c4 d6 3d 29 06 b4 bd 6b ad 41 3e e5 61 0b be
       0.104867645 -0.087902375 0.1891381 -0.13611563
000010 cd e9 29 be c7 ac b9 3e f9 32 22 bd 42 39 b7 be
       -0.16593094 0.3626463 -0.039599393 -0.35785872
000020 2c 67 1b bf 41 be 4f bc 54 b4 19 3e 24 15 08 3e
       -0.607043 -0.012679637 0.15010196 0.13289315
000030 e1 49 75 be 25 4c ad 3d 49 62 01 be ca 3f d5 3d
       -0.23953964 0.08461789 -0.12635149 0.104125574
000040 5d f7 09 3e 45 ac d6 bb 8e f9 c4 3c 25 17 d2 bd
       0.13473268 -0.006551298 0.024044778 -0.10258321
000050 cc 10 31 bd 8f 1f 34 be 66 72 81 be 7d 84 da 3e
       -0.04322891 -0.17590164 -0.25282592 0.42679206
000060 03 da c4 3e 41 51 43 be e4 f5 e7 3c 35 f9 27 be
       0.3844758 -0.19073965 0.028315492 -0.16403659
000070 cf 98 83 be db 9c 2f bd 15 d1 7d 3d e5 79 2f 3e
       -0.2570252 -0.0428742 0.061966974 0.17136343
000080 dc 7b d1 be 07 27 4c 3b 34 31 1e 3e 1b 3c 88 bd
       -0.4091481 0.0031151192 0.15448457 -0.06652089
000090 ad 95 d3 bd a9 a8 31 3e 90 29 91 be 19 b2 6a 3c
       -0.10331283 0.17349495 -0.28352022 0.014324688
0000a0 02 3a 23 bd d0 7f 0f 3e 51 14 af 3d c1 0e e7 be
       -0.039850242 0.140136 0.08548797 -0.45128444
0000b0 19 9c 90 bd 23 b0 f2 3d 1e 62 3a be da e0 5b be
       -0.07061023 0.11850002 -0.18201491 -0.21472493
0000c0 a2 a1 7d bc e7 7c 04 3e 6f c0 65 be 93 6c 8d be
       -0.015480431 0.12938271 -0.22436689 -0.27621898
0000d0 fe 1d f6 bd 12 ab 17 be 47 c5 fe be 8f 41 3c be
       -0.12017439 -0.14811352 -0.49759886 -0.18384384
0000e0 5d 1e b7 3e fe 92 18 be 1c 51 cb 3e 50 de 3d 3d
       0.35765353 -0.14899823 0.3971032 0.04635459
0000f0 5a 17 0e 3e c6 05 e3 3d 19 f2 56 be 2e c8 74 be
       0.13876095 0.110850856 -0.2099079 -0.23904487
000100 6a b9 b4 be 89 d9 83 3e 8c 4d 57 3e a9 a4 8d be
       -0.3529771 0.25751904 0.21025676 -0.27664688
000110 6b 68 b1 3d b3 e3 35 3e 1f 11 08 be 92 f6 84 3e
       0.08662494 0.17762642 -0.13287781 0.25969368
000120 84 51 c9 be 58 64 8d 3c 7f 2e 1f be 13 8a 82 bd
       -0.39320004 0.017259762 -0.1554508 -0.06373992
000130 50 c2 a7 bd 36 a8 0a be 1c f4 8b be 7e fe 10 3e
       -0.08191359 -0.1354073 -0.27334678 0.14159581
000140 45 a9 ad bd 0c 74 a0 bb 05 06 a1 be c2 19 c3 3d
       -0.08479551 -0.0048966464 -0.31449905 0.09526397
000150 05 aa 47 3e 21 d3 09 3e e1 a0 96 3e 92 14 f0 be
       0.19498451 0.13459446 0.29419616 -0.46890694
000160 62 99 2e be cb a3 a5 be db 72 ee 3d 24 aa b1 3c
       -0.17050698 -0.32351527 0.11643001 0.021687575
000170 90 11 b1 bd 58 7b 22 3d 8a 43 4f be 77 7c 37 be
       -0.08645928 0.03966841 -0.20240608 -0.17918573
000180 80 96 cd bd 61 f4 c6 3d ae cd 95 be c9 06 34 bd
       -0.10038471 0.0971458 -0.29258484 -0.043951783
000190 77 c8 f2 be 48 08 4e bc cb 39 ae bd 13 80 d9 be
       -0.47418568 -0.012575217 -0.08507117 -0.42480525
0001a0 19 40 54 be c2 9f 86 bd a6 67 45 3e 45 18 96 3e
       -0.20727576 -0.0657344 0.1927782 0.2931539
0001b0 0c 98 79 be b3 12 eb bc 7c 1e b0 bc 45 fe fe 3a
       -0.24374408 -0.02869544 -0.021498911 0.001945444
0001c0 b1 4f 07 3e 0b b1 95 3d b9 0f d4 3e 24 30 a0 3c
       0.13213994 0.07309159 0.41418245 0.019554205
0001d0 bc 3e 24 bd 52 ba 7b bb 51 e7 41 3d 21 95 06 bf
       -0.04009889 -0.0038410616 0.04733974 -0.525713
0001e0 3f c0 3e be 87 27 5b be eb 62 1e be 96 0d 0c 3e
       -0.18628024 -0.21401797 -0.15467422 0.13677058
0001f0 f5 c8 14 be 33 bc 62 bd 6f c5 43 3d 19 ef 66 be
       -0.14529784 -0.055355262 0.04779571 -0.22552146
000200 d4 ea fb bd c7 61 94 bd a9 0e 42 bd 80 9b 77 3c
       -0.12300649 -0.07245212 -0.047377262 0.015112758
000210 77 a4 ee 3c 25 3a 57 3e a0 c6 c6 be c8 5e 34 be
       0.029131157 0.21018274 -0.38823414 -0.17614281
000220 14 2a 2d be 88 f8 34 be bf 34 f6 3d d7 22 85 3e
       -0.16910583 -0.17672932 0.12021779 0.26003143
000230 d8 5b fd bd c1 34 4e be 3f 1c 17 be 18 83 54 be
       -0.123710334 -0.20137312 -0.14756869 -0.20753133
000240 4b df 59 bc 66 f1 45 be 8c 58 28 3e 65 d5 c5 bc
       -0.013297866 -0.19330367 0.16440028 -0.024149606
000250 37 33 7a 3d 25 f9 a9 be 1f 58 06 3f 94 25 17 be
       0.061084 -0.33197895 0.5247821 -0.14760429
000260 83 bf db be e1 57 b6 3e aa 77 a4 bd d5 98 06 be
       -0.4291955 0.3561392 -0.080306366 -0.13144238
000270 2d 06 d0 3e 46 52 d2 3e 5e dd ca bc 2f 73 0f 3c
       0.40629712 0.41078395 -0.02476376 0.008755489
000280 03 6c 79 bd 9a 65 0c bd fa ea 78 bd 4b 09 52 be
       -0.060894024 -0.034276582 -0.060770966 -0.20511357
000290 3c f2 bd 3d b5 64 40 3e ef 29 ac 3e d8 50 d2 3c
       0.09274718 0.18788417 0.33625743 0.025673315
0002a0 19 2b 8d 3e d3 b5 28 3e 48 0b 1b be 2e c4 05 bd
       0.27571943 0.1647561 -0.15141022 -0.032657795
0002b0 f2 ae a2 3e 2a f1 6f 3e 36 08 95 bd 33 8b 92 3d
       0.31774098 0.2343184 -0.07276957 0.071554564
0002c0 8a 2c ef be bf ec 5e bc 0a dc 2b 3e b9 fc 65 bd
       -0.46713668 -0.013606249 0.16783157 -0.05614922
0002d0 ee 82 6d be 02 da 80 bd c9 8b ac 3e ee 2b 51 be
       -0.23194477 -0.06291582 0.33700398 -0.20426914
0002e0 5e 20 e9 be c6 32 a2 3c f4 24 e1 bd 5e 67 66 be
       -0.45532507 0.019799601 -0.109933764 -0.22500369
0002f0 5e 39 aa bd c3 e2 cc bd 4d a5 c6 be 04 ac b0 be
       -0.08311723 -0.10004189 -0.3879799 -0.34506238
000300 d3 85 2f 3e e0 7b c4 bd 05 e9 43 3d 34 68 f4 bd
       0.17140894 -0.0959394 0.047829647 -0.11933938
000310 fc e6 64 be 41 c9 2b 3e 46 f4 e1 3e 36 c8 c0 bd
       -0.22353739 0.16775991 0.44131678 -0.09413187
000320 c5 5e b5 3e 4c d4 4c 3e 4a 56 81 3e 14 1b 56 3e
       0.35423866 0.2000286 0.25261146 0.20908767
000330 dd 16 21 bb af aa a5 3e 87 98 ae be 44 a6 f9 bd
       -0.0024580278 0.32356784 -0.34100744 -0.12189916
000340 be 81 b8 be 23 fc 9e be 13 1a 77 3b 52 4d 84 3e
       -0.36036485 -0.3105174 0.003770475 0.2584024
000350 e7 02 0a bd 90 c2 b9 be de c1 63 bd 0c c7 72 3c
       -0.033694174 -0.36281252 -0.055604808 0.014817964
000360 36 40 a9 bd 15 b8 7a 3e 18 6d 05 be 13 72 67 bd
       -0.082642004 0.24484284 -0.13029897 -0.056505274
000370 c6 5f d6 be be 36 e3 be 71 6e 32 3d f1 4d 8e bc
       -0.41869944 -0.44377702 0.043562356 -0.01737115
000380 d2 14 9a 3e 10 18 5b bd 5a ca b1 be 79 1e 76 3d
       0.3009401 -0.053489745 -0.34724694 0.060087655
000390 9c 03 3d 3e 75 a9 6e 3e 92 a7 af bd d3 6f 09 3f
       0.18458408 0.2330683 -0.085768834 0.53686255
0003a0 0b 03 c6 be 76 5b cf 3d 10 06 aa bd e5 64 25 bc
       -0.38674197 0.10124867 -0.083019376 -0.010094856
0003b0 c0 53 ba 3c a7 de 29 3e 73 a3 6f 3d 2f 5d 89 3d
       0.022745013 0.16588841 0.058505487 0.067072265
0003c0 74 47 db be 49 77 cf 3e 6e 2e f3 3e ce 83 07 be
       -0.42827952 0.40520695 0.4749636 -0.13233873
0003d0 a2 e5 6f 3d 34 be 74 3e 33 b6 4e be a8 7a e7 3d
       0.058568604 0.23900682 -0.20186691 0.11302692
0003e0 7a 94 ca 3e 2b fb 03 3d 48 47 89 3e c0 1e ad 3d
       0.39566404 0.032221954 0.26812196 0.08453131
0003f0 79 18 6c be 75 67 35 3e 61 c1 9b bb a3 c9 9e 3e
       -0.2305621 0.17715247 -0.004753277 0.31013212

fc2.bias f4 [128]
000000 f2 d1 be bc 73 08 12 bd ca 13 a7 bd ae 6f 29 be
       -0.02329347 -0.03565259 -0.08158071 -0.16546509
000010 5c 63 82 be e6 2f cd bc a6 13 f8 bc 47 9a 14 bd
       -0.2546643 -0.025047254 -0.030282807 -0.036279943
000020 99 40 d4 be 98 8d dc 3d 3c 9d e4 3d 1d db b1 3c
       -0.41455534 0.10769194 0.111628026 0.021710927
000030 b1 7f 88 be 43 22 7c bc cc 29 a9 be 9c 76 17 3e
       -0.2665992 -0.015389028 -0.330397 0.1479134
000040 c9 98 9d bd 03 c1 06 3e b5 d8 8f be d9 df c4 bd
       -0.07695157 0.13159566 -0.28095022 -0.09613008
000050 c1 90 11 be 3d ee c9 bc 0e eb 0c bd 59 ce 8a 3d
       -0.14215375 -0.024649734 -0.034403853 0.06777639
000060 27 cc 27 3e f2 6b b7 bd 20 92 91 be 1b 60 51 bd
       0.16386472 -0.08956136 -0.28431797 -0.051117044
000070 30 5d 9d bd b2 bd b7 3d a6 b4 91 bd 18 17 89 bd
       -0.0768379 0.089717284 -0.07114534 -0.06693858
000080 99 15 2f bc b5 57 90 bd 13 8d 19 be 52 ce 0f bd
       -0.010686302 -0.07047979 -0.14995222 -0.03510887
000090 d7 7b 34 3d 2e e3 6b bd 2e d0 33 be 64 7e 58 3d
       0.044063415 -0.057589702 -0.17559883 0.05285491
0000a0 5d 07 7f be da b7 98 be b0 19 9c bd 9d 85 a0 be
       -0.24905153 -0.29827768 -0.07622087 -0.3135194
0000b0 7e cf a1 be b9 44 0e be 74 76 92 bd 45 61 69 3d
       -0.31603616 -0.13893403 -0.071514994 0.05697753
0000c0 d5 26 6a bd db 1b 65 bd 43 80 c3 bd b4 11 9a 3d
       -0.05716594 -0.05593477 -0.09545948 0.07522908
0000d0 6f ab 47 be d8 e2 a2 bd 27 e2 cf bd f7 42 74 bd
       -0.1949899 -0.07953423 -0.10150557 -0.059634175
0000e0 95 4f 95 bd b9 8b 3b bc 50 83 60 3d 65 92 4a 3e
       -0.0729057 -0.011446887 0.05481273 0.19782408
0000f0 4e f7 33 bd 42 19 12 3e f6 7f 7f 3d 26 db 30 3e
       -0.04393702 0.14267448 0.062377892 0.17271098
000100 ad 6b b7 3d b0 c2 36 be 92 16 32 3d a5 dc 24 3e
       0.089560844 -0.17847705 0.043478556 0.16099794
000110 50 75 5d bd 5a 3b 6e be 7c c8 ef 3c f6 49 75 bd
       -0.054066956 -0.23264828 0.029270403 -0.059884988
000120 8f b6 55 be 04 57 fc be fa 5b 8e be 67 64 91 be
       -0.20870422 -0.49285138 -0.27804548 -0.28396913
000130 26 25 85 bd 8e 31 9c bd 8c 6c b3 be 88 37 b6 3d
       -0.06501226 -0.07626639 -0.35043752 0.088973105
000140 1d 9f fc bd b8 a6 25 be 40 6f 05 bc d5 9b b2 be
       -0.12335036 -0.1617688 -0.0081442 -0.34884515
000150 96 b7 0f 3e 37 43 92 3d 4b 35 aa 3b e7 e8 f3 bd
       0.14034876 0.071417265 0.0051943413 -0.11909657
000160 f5 1e 94 3d 03 01 4f bd f7 eb d3 be 01 ba c2 3c
       0.07232467 -0.050538074 -0.41390964 0.023770334
000170 84 6f 0a bc da 2b 5a 3d 24 20 90 bd 16 9f a1 bd
       -0.008449439 0.053264476 -0.0703738 -0.07891671
000180 1f db 9c 3c da aa 7e be 31 37 01 be 72 e6 1f 3d
       0.019147454 -0.24869862 -0.1261871 0.03903813
000190 4b 64 d7 3d 50 f6 61 be b6 95 e7 3b ac ed 35 bd
       0.10517176 -0.22066617 0.0070674075 -0.044416115
0001a0 4e 77 04 be 8f c3 8f 3d 07 e9 ce 3d 53 11 3b be
       -0.12936136 0.07019722 0.1010304 -0.18268327
0001b0 2e 5e c2 be 5f 1d 18 3e e8 3d 82 be 5e ad 88 bd
       -0.37962478 0.14854954 -0.25437856 -0.06673692
0001c0 4c 88 37 be b4 3d 4c be 9f 9a f9 bd 1c 1a aa bd
       -0.17923087 -0.19945413 -0.12187695 -0.08305761
0001d0 df fd 37 be 76 07 e3 bb 2c f6 cb bd dc ad 13 be
       -0.17967938 -0.0069283796 -0.09959063 -0.14421791
0001e0 3a 40 70 3d a0 2a 4c be 79 92 04 3e 3f b4 4d 3d
       0.058655 -0.19938135 0.129465 0.050220724
0001f0 97 13 5d be 72 f6 46 3d 0c 37 7c bd 27 fa a9 bd
       -0.21589504 0.048574872 -0.061575934 -0.08299666

fc3.weight f4 [4, 128]
000000 9e f6 80 be 16 34 8f 3d 88 d0 d0 3e 3c 9e 37 bf
       -0.25188154 0.069923565 0.40784097 -0.7172582
000010 a8 af ae be a5 da 80 be 0c 93 de be 78 d4 cd 3b
       -0.3411839 -0.25166813 -0.43471563 0.0062814318
000020 54 51 0a bf 39 8d b5 be ac 9b 14 be 79 15 96 bd
       -0.54030347 -0.35459307 -0.14512509 -0.07328314
000030 f0 eb 95 3f 6c 72 09 3f a9 0f 1a bf fa 07 66 bf
       1.1712627 0.5369022 -0.60180146 -0.8985592
000040 a1 5b 38 3f 86 76 d0 bd 85 6b 1c 3f 7a 27 20 be
       0.72014815 -0.101788566 0.6110156 -0.15640059
000050 76 d4 f6 be b4 7c b0 3b 77 54 75 3e 79 2a 0a 3f
       -0.4820897 0.0053859595 0.23958002 0.5397106
000060 89 49 79 3f 33 e9 07 bf 73 57 83 3d 5d e5 bb 3e
       0.9737783 -0.5309021 0.06413164 0.36698428
000070 35 a0 16 3f c2 57 82 3e 30 db 28 be cf 5f 5a bf
       0.58838207 0.2545758 -0.16489863 -0.8530244
000080 1c 2d 96 3e 60 2a a3 be e4 b0 23 3f 65 26 45 3e
       0.2933129 -0.31868267 0.6394179 0.19252928
000090 87 fb 46 bd 49 c3 2d 3e 6b 0a 83 be 10 22 95 be
       -0.04857972 0.16969027 -0.25593886 -0.2912755
0000a0 71 32 46 be 81 f1 0e 3e 75 a8 ea 3e 5c 50 a8 3e
       -0.1935518 0.13959314 0.45831648 0.3287381
0000b0 ce 61 fb be 32 f4 7a bc 6e 13 2d be ba c3 62 be
       -0.49098057 -0.01531701 -0.16901943 -0.22144976
0000c0 94 34 04 3e a9 31 7e bd cc 11 16 3e fd 3f 85 3d
       0.12910682 -0.06205908 0.14655226 0.065063454
0000d0 a3 14 58 3f 03 38 12 3e 4a a1 9f be 73 3e 35 bf
       0.8440649 0.1427918 -0.3117774 -0.70798415
0000e0 5b ed 48 3f 14 25 76 bd bb 8e ed bd 2f 1b 84 3d
       0.78487176 -0.060093954 -0.11599489 0.06450497
0000f0 72 bf 09 3f 63 ca 89 3e 1f bf 31 3f 2f 98 e9 3e
       0.5380775 0.2691222 0.6943225 0.4562392
000100 fd b2 f5 3d 11 35 e5 be 14 dc 99 3d 79 59 21 3f
       0.1199703 -0.4476705 0.0751268 0.6302715
000110 0a 55 3d 3f 66 3e 95 bd c1 8a 33 bf 46 4d ee be
       0.73957884 -0.07287292 -0.70133597 -0.4654333
000120 67 b8 34 be 11 be a5 be 91 4f 27 be 38 6c a9 bc
       -0.17648469 -0.32371572 -0.16338946 -0.020681486
000130 99 57 2d bc 8a 8a 8d be e6 be 96 3e e7 36 da bd
       -0.010579967 -0.2764476 0.2944252 -0.10655003
000140 b4 81 59 bd ce 1b 8e bb f6 76 8b bd 52 b4 14 be
       -0.05310221 -0.0043368107 -0.068097994 -0.14521912
000150 b9 62 20 3f 75 34 23 bf 09 fc 8d bc 99 40 3f 3d
       0.6265064 -0.6375192 -0.017332094 0.046692465
000160 ce 17 d4 3e c1 fb 94 3e 93 1b a3 be 97 53 04 bf
       0.41424412 0.29098323 -0.31856975 -0.5169005
000170 60 a4 9f be bc f1 3a 3f 3d 6b 0b be 88 a5 23 bf
       -0.31180096 0.7302511 -0.13615127 -0.63924456
000180 25 98 16 bf 71 b2 c7 3e 84 38 c7 3e 97 88 21 be
       -0.58825904 0.39003327 0.38910306 -0.15774761
000190 11 b5 8f bd 9a 34 69 3f c9 e2 30 bf 56 a3 bb bd
       -0.070169576 0.9109589 -0.69096047 -0.09162013
0001a0 7b 2f 35 39 53 ad e2 3e ef 38 c7 be 3f 20 b8 bb
       0.00017279193 0.4427286 -0.38910624 -0.0056190784
0001b0 15 61 7a be 18 e7 80 3e ae cd 8c be 83 2e 99 be
       -0.24451096 0.2517631 -0.2750067 -0.29918298
0001c0 c4 4e 0e 3f f4 78 48 3f 7e c4 ff 3d a4 07 7d be
       0.55588937 0.7830956 0.1248865 -0.24709946
0001d0 b9 67 5d bf df 4f 49 ba 59 05 6b be f2 4d 08 be
       -0.86486393 -0.0007679443 -0.22951259 -0.13310984
0001e0 5f da a2 3c 9e 60 76 bd f5 b0 06 bf c2 69 02 3e
       0.019879518 -0.060150735 -0.52613765 0.12735656
0001f0 5b d1 f9 be 98 f7 c5 be c4 7f 1f bd 25 32 43 3b
       -0.48792538 -0.38665462 -0.038940206 0.0029784527
000200 fc 81 8d 3d ff bd b9 be a3 22 8e 3e 95 bc a4 be
       0.06909558 -0.36277768 0.277608 -0.32175127
000210 f0 c3 46 3f ca bf 94 be 32 f7 6f 3f f3 3b a4 3d
       0.77642727 -0.29052573 0.93736565 0.08019247
000220 c8 ac a3 3e f1 e6 17 3f 3e c1 1b 3f 89 e0 bd bd
       0.3196776 0.59336764 0.6084174 -0.09271342
000230 dd 96 ae be a8 20 21 be 98 f7 f3 bd 41 be 94 be
       -0.34099475 -0.15735114 -0.11912459 -0.29051402
000240 66 fd b8 3d 2f 70 78 be a2 97 d7 3c 79 08 b5 bc
       0.09032707 -0.24261545 0.026317421 -0.022098767
000250 8b 48 49 3e bf aa 09 bf aa 11 ac be 02 85 69 3e
       0.19656579 -0.5377616 -0.33607227 0.22804645
000260 e0 6f 0a 3e 13 21 40 3e 9a 2e e4 bd 61 ed 9c 3e
       0.1351924 0.18762617 -0.11141701 0.30649856
000270 e3 15 06 3f cf 70 45 be 7e 1d 0f 3e a0 36 a3 be
       0.52377146 -0.19281314 0.13976094 -0.31877613
000280 6d ac 60 3f ce 4a 70 3e 18 a1 c3 be fe bc f5 be
       0.877631 0.23466036 -0.38208842 -0.47995752
000290 71 57 57 bd 87 ea 8a 3f 81 c5 53 3f 5b ee 2f be
       -0.052573625 1.0852822 0.8272324 -0.17180769
0002a0 08 7f 03 bf 33 d8 a0 be 23 44 da be 7d a7 c6 3e
       -0.5136571 -0.31414947 -0.4263011 0.38799658
0002b0 2a 5a d0 3e f3 61 8c 3f c8 80 d9 3c a1 e0 c2 3e
       0.4069379 1.0967392 0.026550665 0.38062003
0002c0 b1 a4 8d be 0b fc ed be c2 09 50 3f 96 27 31 bf
       -0.27664712 -0.46481356 0.8126489 -0.6920103
0002d0 44 58 13 be 3b 34 13 bf a9 76 f0 3e 6c 9a f9 bd
       -0.1438914 -0.5750157 0.4696553 -0.12187657
0002e0 49 12 6c 3d 0f f6 2b be f6 20 a2 be fd 35 e9 be
       0.057634626 -0.16793083 -0.31665772 -0.45549002
0002f0 8d 56 ea 3e 88 77 74 be 61 e5 be be 10 b8 fa be
       0.45769158 -0.23873723 -0.37284377 -0.48968554
000300 0e f4 df be db da 97 3e 44 e1 8a 3f 36 e1 0d 3f
       -0.43740886 0.2965916 1.0849996 0.5542177
000310 80 9f 2f 3e 86 28 b0 3e 61 3f 15 be 86 87 78 be
       0.17150688 0.34405917 -0.14574958 -0.24270448
000320 e9 8d a0 3f db d3 18 be 9b fd 6c 3e 71 42 05 3e
       1.2543308 -0.14924566 0.23143618 0.13013627
000330 c0 cd 43 3d aa 25 4b 3e a4 6f 5d be 60 52 a6 bd
       0.04780364 0.19838586 -0.21624619 -0.081211805
000340 2c c2 5a 3f bf bf a4 be 7a 0c 40 3f ec 87 50 bf
       0.8545253 -0.3217754 0.7501904 -0.814574
000350 83 85 b2 bd 54 42 09 3f 38 47 b3 3b d2 db 84 3f
       -0.087168716 0.53616834 0.0054711364 1.0379584
000360 ef a0 0e 3d 2c 56 30 bd ce 51 82 3e fe 05 4d 3e
       0.034821447 -0.04305093 0.25453037 0.20021817
000370 4d bf 93 bd 25 19 8c be e5 ad 16 3e 81 43 9c be
       -0.07214222 -0.27362934 0.14714773 -0.3052025
000380 76 7f 90 be 94 1a 0e bf f7 5f a6 3e 85 23 35 3f
       -0.28222245 -0.55509305 0.3249509 0.70757324
000390 10 cf 76 be 42 28 44 be ad 3b b9 be 94 cf e7 be
       -0.24102426 -0.19155982 -0.36178342 -0.45275557
0003a0 3c e8 e7 be ca eb 8d 3c 35 6b 15 be 4b 13 9e be
       -0.45294368 0.017324347 -0.14591677 -0.30874094
0003b0 e8 34 ac be a6 58 19 bf 70 53 16 3f ca f2 54 3d
       -0.33634114 -0.5990089 0.58721066 0.051989354
0003c0 22 19 2c 3f a9 7c f9 3d ad 26 0b be 44 26 91 3e
       0.6722585 0.1218198 -0.13588972 0.28349507
0003d0 15 8f d8 3d 32 02 58 3e d9 06 13 3f 1a e1 1e bf
       0.10574166 0.21094587 0.57432324 -0.6206223
0003e0 c4 e7 48 be 3b 03 d8 3c 9b 6c 03 bf f0 b3 db be
       -0.19619662 0.026368728 -0.51337594 -0.4291072
0003f0 f3 d9 7e 3e c5 61 7f be c2 87 10 be e2 f3 13 bd
       0.24887829 -0.2493964 -0.14114287 -0.036121257

fc3.bias f4 [4]
000000 45 2f 45 bd 3e 57 9a be df ff 9a 3d 1c dc f6 3d
       -0.048140783 -0.30144686 0.07568335 0.12053701
